catkin_ws/src/sarl/il_model.pth (torch_old, 389084 bytes, 20 tensors)

mlp1.0.weight f4 [150, 13]
00000000: e1b6 283d ac20 a13e 10f8 4e3e d882 6c3e
00000010: 53ac bdbe f7df 9abe a3c6 6d3e c590 a93e
00000020: fc9f ecbd cca8 163d 5afc f7be 9b46 503c
00000030: 6c56 b0be cbda 223e 6d73 cebe c0ed f33c
00000040: bc01 8abe ace1 5cbe b1b3 423e 447e 94bc
00000050: 9b42 b7bd dbf1 f13e 606b 3f3d 51f5 ac3e
00000060: 917c 023d 09aa 513e 5ff9 30be b744 763e
00000070: f4fa 3bbe 2e50 34bd f71f 80be e1f3 443e
00000080: 7ae9 d1bd 9739 4bbe be40 203d 9982 78be
00000090: c62c 17be 15b9 783d 656a cabd 447b b3bb
000000a0: 4cbc b73e 4c3f 21be dbbc 20be c490 a2be
000000b0: 7de4 5fbe 2868 b43d cf8f f23d c0aa fb3c
000000c0: 191b 40bb f153 bfbd 70a8 7cbd 61d7 d9be
000000d0: 736d 043e 18de 56be 3c16 bc3d b3f5 9abe
000000e0: 3752 373e fa27 97bd f8a3 7abe 335a 5c3e
000000f0: 8fec f3be 3775 193f 4065 d13d 6fdb 3f3e
00000100: a3f0 85be b675 4dbd 7069 69be 3b58 14be
00000110: bd92 97bd 5e59 053e 9357 0fbe b757 6c3d
00000120: a478 ea3e 8618 99be 9149 933d 7dee 8dbe
00000130: 27e0 0a3e 957c 623e cd8e 243d 2e45 34bd
00000140: 382d 893d db92 cfbd 9ef0 eebc a65b 363e
00000150: 6ab9 ce3c 4bb4 113e ebaf 503d 8af0 a43e
00000160: 8073 423e c0eb 87bc f92e 69be 6ce8 b2bd
00000170: 1225 5d3c 1ab9 82be 8243 9abe 4a12 af3e
00000180: 67ca f2bd b76c 6d3e 7ed6 79be 5465 393f
00000190: 7d7d f3be 1d8f 35be 5da9 093e 4b6d 8abe
000001a0: fbd4 38bd 3442 8b3e 7b5c 833e d21b be3d
000001b0: 1f96 d1bd 85a5 5f3e 2a7a b3be 5aec c73d
000001c0: a8f1 95be df99 b3be 886b a93d ef2b c33e
000001d0: 7138 0bbd 0ad8 463e 4e2a febd a86a 0c3d
000001e0: 5bfd 71be 06a0 ae3c e7a8 e43e ef6e b5be
000001f0: aad7 f5bd 190e 333e c211 35be 3479 43be
00000200: 4bbb 703e 4c6d ccbe 43ed 7dbd f84e 66be
00000210: f091 4bbe 7fe9 14be fc89 0abe bd3e 5e3e
00000220: 83ae e7bc 180b d8bd d735 68bd 936e 853e
00000230: 527b 413e add3 8abd 787a 1b3e 9189 643d
00000240: 9e37 0c3e 52d6 653e a0e7 5cbd e166 393e
00000250: 2c36 3d3e 415b 0dbf d367 08be 9a01 d3be
00000260: 32f8 20be 8ed0 38bc d4c8 d43e cc77 9abe
00000270: 577f ebbd abfd aa3d 5898 323e 0eac 77bd
00000280: bc69 1b3e cfcd 943e 5ca1 523e f729 773e
00000290: 481b 91bd 6a44 813a 0c62 18bd 040e 4dbe
000002a0: 01f1 2b3e 3ad0 8a3d bc56 123f 3443 1dbd
000002b0: eecf b1bc c55f c1be 0500 11bf 8d90 98be
000002c0: 0318 3a3e 0c70 2a3e 2896 f23d 65aa 40bf
000002d0: 703d a03e 4932 20bf db9d 713d 484f 1ebe
000002e0: d414 86bd 422d 50be a7bb 3cbe cfe5 123e
000002f0: c0ea a5bd 4d30 babe 0eec fabd af13 6f3c
00000300: 2663 eabd 0f2c 2e3e 6bde ff3d 9390 9e3d
00000310: 9f7b 03be 32d8 9fbd 3d48 0ebd 3ea0 273e
00000320: 886b ffbc bf2d 24be 7eb8 e03d 9bd8 b03e
00000330: 7829 6bbe 63d1 47be 1566 88bc 7fea 9abd
00000340: de93 c53c 1a42 e7bd dc08 3d3e 5071 1cbe
00000350: 706c 81bd 4695 063d 31eb bc3e 9c3d adbe
00000360: 7f1c 7cbe f630 c6be bd77 233e 9149 ecbd
00000370: 70fe 9c3e bd06 86be 4bcc 8bbc 4cd4 31be
00000380: 66cb a33d 5179 1c3e 0097 b2bd 1e15 863e
00000390: adc2 bbbe 8053 85be 9534 25be 26bb 58bd
000003a0: 19a4 cc3d 4655 9f3d 3e21 533d 194f c73d
000003b0: 6040 55bc 9189 6a3e 285e 04bf 789c ee3e
000003c0: 3cc0 103d 9b99 303b d303 2bbd 24db 943d
000003d0: 86cd 63be a0c3 afbd e192 46be f85e 223d
000003e0: 22d8 8e3e eb2f 51be 155a aebd 6d3f 9abe
000003f0: e4e9 a3bd 4959 fbbe 61b7 85be cb0c 18be
0.041190032 0.3147024 0.20211816 0.23096788 -0.37045535 -0.30248997 0.23220305 0.33118263
-0.11553952 0.03678207 -0.48434716 0.012712146 -0.34440935 0.15903775 -0.40322438 0.029776454
-0.26954448 -0.21570462 0.1901386 -0.018126614 -0.08948251 0.47254834 0.04673326 0.33780912
0.031857077 0.2047502 -0.17282628 0.2404965 -0.1835745 -0.044021778 -0.25024387 0.19233657
-0.1024961 -0.19846188 0.039124243 -0.24268569 -0.14763173 0.060723383 -0.098835744 -0.005477341
0.35885847 -0.15746802 -0.15697043 -0.31751072 -0.21864505 0.08808929 0.118438356 0.030721068
-0.0029313026 -0.093421824 -0.061684072 -0.42547134 0.12932377 -0.2098316 0.09183928 -0.3026558
0.17902456 -0.07380672 -0.24476612 0.21518783 -0.47641417 0.5994448 0.1022439 0.18736051
-0.26160154 -0.050161086 -0.22794127 -0.14486782 -0.07401035 0.13022372 -0.1399825 0.05770084
0.45795166 -0.29901522 0.07191766 -0.27721015 0.1356207 0.22117837 0.040175248 -0.044011287
0.06698078 -0.10135432 -0.02916747 0.17808399 0.025234897 0.14228933 0.05094902 0.32214767
0.18989372 -0.016591907 -0.22771825 -0.08735737 0.013497608 -0.25531846 -0.3012963 0.3419364
-0.118550114 0.23186003 -0.24398229 0.7242024 -0.47556677 -0.17730375 0.13443513 -0.2703651
-0.04512499 0.27198946 0.25656494 0.0928265 -0.102337115 0.21840484 -0.3505414 0.09761877
-0.29285932 -0.35078332 0.08272463 0.38119456 -0.033989374 0.1941835 -0.12410413 0.034281403
-0.23631804 0.02131654 0.44660112 -0.35436198 -0.12004025 0.17485847 -0.17682555 -0.19089204
0.23508947 -0.39927137 -0.06199385 -0.22491062 -0.1987989 -0.14542197 -0.135292 0.2170362
-0.028281456 -0.10548991 -0.05669197 0.26060924 0.18894699 -0.06778655 0.15183437 0.055795256
0.13693091 0.22445038 -0.053931832 0.18105651 0.18477696 -0.5521737 -0.13320856 -0.4121216
-0.15719679 -0.011280192 0.4155947 -0.30169523 -0.114988975 0.083491646 0.17440927 -0.06046682
0.15177053 0.2906327 0.20569366 0.24137102 -0.070852816 0.0009862308 -0.03720288 -0.20024878
0.16791154 0.06777997 0.57163596 -0.038394168 -0.021705594 -0.3776838 -0.56640655 -0.29797783
0.18173222 0.16644305 0.11845046 -0.7526 0.31296873 -0.6257673 0.058988433 -0.15459931
-0.065469414 -0.20329764 -0.18430959 0.14345478 -0.08101416 -0.36364976 -0.12252055 0.014592095
-0.11444692 0.17008995 0.12493595 0.07742419 -0.12840126 -0.07804908 -0.03473686 0.16369721
-0.031179205 -0.16033076 0.10972689 0.34540257 -0.22965038 -0.19513468 -0.016650239 -0.07564258
0.02411836 -0.11291905 0.18460411 -0.152776 -0.06319511 0.032857202 0.36898187 -0.33836067
-0.24620245 -0.3870923 0.15963645 -0.11537469 0.3066287 -0.26177016 -0.017065188 -0.17366141
0.079977795 0.15280654 -0.08720207 0.26187986 -0.36671963 -0.26040268 -0.1613334 -0.052912854
0.09992237 0.077799365 0.051545374 0.097318836 -0.0130158365 0.2290404 -0.5170617 0.4660375
0.03533958 0.0026947025 -0.041751694 0.0726836 -0.2224637 -0.085822344 -0.19391967 0.03964135
0.2789927 -0.20428436 -0.085132755 -0.30126515 -0.080035955 -0.49091557 -0.2611647 -0.1484863

mlp1.0.bias f4 [150]
00000000: de39 2b3e c9cf bfbe ef71 8cbe 525e 823e
00000010: 6873 6e3d c840 433e 5fcf 533d b98d 48be
00000020: 6abf f13d 28cb 5bbe 159f 8f3d f0da 98be
00000030: 1456 753e 116a 053e bf0d 16bc 540b 213d
00000040: 3415 c6bd 2fb6 323e 7bcb a73e 7043 d63e
00000050: a0f1 903d 71c2 6a3e 73c4 513e 2651 0c3f
00000060: 61ae 89bd 3508 393c 1e04 35bd a3c3 74bd
00000070: 84f9 05be 2e1c d0bd 863d 60be 7f6a 363e
00000080: 6415 9cbe ad0b 96bc 52d5 2e3e 1bfb 9dbd
00000090: 4cd4 153e 769d d63b 4ad8 85be 8efa 61be
000000a0: b2e9 863e cf98 9e3e c025 6f3e ce8f 76bd
000000b0: c064 78be 107d afbd a758 adbd c4c4 5dbd
000000c0: 6a8c 49be 3f62 48be d587 4dbe 2aff 1b3b
000000d0: 370e 86be 0fb3 533e 5c73 3a3d 79a3 423d
000000e0: 755d 823e 4072 d63d 12b9 51be 0560 43be
000000f0: 0793 f4bb e8f0 09be 8b38 193e 1411 88be
00000100: 0961 89bd d905 3bbe 96e0 7b3e 9a96 213d
00000110: 2a79 373d bee3 a0be 3c7a 07bd 046d ab3e
00000120: d2c8 243d 13d9 70be 3745 d8bd 0d2a 24be
00000130: 55dc b93d 4c5a 05be bad0 393d 83ba 55be
00000140: fd18 a93e ade0 d73c 3acc 0ebe 783f 0b3e
00000150: d3cf 613e 240c 823e 22f9 89be ea63 233e
00000160: 812e 8b3e 6893 66be 8825 a33e 04ea 5bbe
00000170: b991 313c d41e 52be c3eb fdbd e0cb 62be
00000180: 68d0 803e 7403 80be 66ba a33c 95fb 2ebe
00000190: df00 d83d 5634 04be 32d3 54be c3da 22bd
000001a0: c4a7 923d b237 ba3d 9368 313d b6f2 1cbe
000001b0: 01a8 55bc 225e 33bd 7d8c 7ebe ce34 a53e
000001c0: d322 16bd 3516 923d ede3 2f3e 3bfa 97bd
000001d0: 8a72 7d3e 981a 49bd 0721 92bd da4d a1bd
000001e0: cc67 1abe 8318 52be 10c0 3dbe 8a0f 86be
000001f0: 27b8 8cbd 551d 363d 6093 2fbe 43c2 ba3d
00000200: 8eb8 8c3e f6c5 12be 56fa 873e ea91 743d
00000210: 05ba e9bd d4be f2be 9dcc 93bd 1869 603e
00000220: fce4 8c3d 3164 6cbe 1af6 b0be d4f3 1b3e
00000230: 83b6 103e 615e e4bb 512a 613e 84c4 27bc
00000240: 6fe6 47be 5c75 72be 69f8 77be 5534 8a3e
00000250: 8ac4 b6be ce33 a43e
0.16721293 -0.37463215 -0.27430674 0.25462586 0.05821553 0.19067681 0.051711436 -0.19585313
0.118040875 -0.21464217 0.07012764 -0.29854536 0.23958617 0.13028742 -0.009158551 0.039317444
-0.09672013 0.1745231 0.3277243 0.41848326 0.07077336 0.22925736 0.20485096 0.5481132
-0.06722713 0.011293461 -0.04419338 -0.059756886 -0.13083464 -0.10161625 -0.2189847 0.17814063
-0.3048507 -0.018316114 0.17073563 -0.0771391 0.14631766 0.0065495325 -0.26141578 -0.22068235
0.2635017 0.3097596 0.23354244 -0.060195737 -0.24257183 -0.08568776 -0.08464175 -0.05414273
-0.1968247 -0.19568728 -0.20071347 0.0023803213 -0.2618272 0.20673774 0.04552017 0.04751918
0.25461927 0.1047101 -0.20480755 -0.19079597 -0.007463816 -0.13470805 0.14962976 -0.2657553
-0.06707961 -0.1826395 0.24597391 0.039450265 0.044793285 -0.31423753 -0.033075556 0.3348161
0.04023058 -0.23520307 -0.10560077 -0.16031666 0.09075228 -0.13022727 0.045365073 -0.2087193
0.33026877 0.026352251 -0.13945094 0.1359843 0.22051935 0.25399888 -0.26947886 0.15956083
0.27183917 -0.22517169 0.31864572 -0.21475989 0.010837966 -0.20519572 -0.123984836 -0.22148085
0.25159 -0.25002635 0.019986343 -0.17088158 0.10547041 -0.1291059 -0.2078369 -0.03975941
0.07160905 0.09092654 0.04331262 -0.15326962 -0.0130405435 -0.043790944 -0.2485828 0.3226685
-0.036654305 0.07133142 0.1717679 -0.074207745 0.24750724 -0.049097627 -0.07135206 -0.07876177
-0.15078658 -0.20517163 -0.18530297 -0.2618373 -0.06871062 0.044461567 -0.17146063 0.09119084
0.27484554 -0.14333329 0.2655818 0.059709467 -0.114124335 -0.47411215 -0.07216761 0.2191509
0.06879613 -0.23085095 -0.3456276 0.15229732 0.14132123 -0.0069692587 0.21988799 -0.010239724
-0.19521497 -0.23677582 -0.24215855 0.2699305 -0.35696822 0.32070774

mlp1.2.weight f4 [100, 150]
00000000: 5e87 99bd a991 3c3d 04cf 18bc 26af b63b
00000010: 1b2d c2bd cb9a 8a3c 1f75 89bd d64c 623d
00000020: 1524 5ebd b298 febb 730b 81bd 23d5 76bc
00000030: 33c8 0f3d 4f82 afba 3305 62bc b2b8 9abd
00000040: dec6 d63d f9d5 513d 168b 6ebd 4b68 c7bb
00000050: 5f99 903d 8544 c83b 6352 a73d 4db4 33bd
00000060: 4e42 53bc 1146 833d 4b28 013b 9f65 be3d
00000070: 7c32 15bd c997 bc3c 1fbd 28bb e947 8dbd
00000080: 6703 bc3b 5143 9e3d e120 11bc 9c11 153d
00000090: 14eb 5fbd 95de 4dbd b58b d53c 2294 d7ba
000000a0: 009e b1bd 015e a0bd 7fa6 243d 5fec 5fbc
000000b0: 2959 6abd da8d 273d ad4b b23d ffad aebc
000000c0: ef15 e83c cbea 23bd 789a 6ebb d2e5 673c
000000d0: 3f2c 9d3d b3d3 933d 173a 3cbb 12f5 763d
000000e0: 0ec8 47bc 6419 b23d a15e 1a3d ecd6 16bd
000000f0: b4d5 c03b d70f 0dbb 6843 953d 2374 c3bc
00000100: eb93 523b 1f1f 9ebd 48e9 583d 9923 393d
00000110: cd93 25bd 217e 233c 8ddc ddbc 401e 5b3d
00000120: a030 83bd f9d0 4b3d 0783 15bb 887f 16bd
00000130: cf9a 453d fa2d 273d bb6f 9dbd da03 d63d
00000140: 0d9a bdbd 5f0a 62bc beac 363d 5f96 67bd
00000150: 27ac e03d 3e99 8bbb 0a6c 20bd 7509 653d
00000160: a066 f4bc 152c 59bb 1e9d b43c 925d 9bbd
00000170: 19ad 263d e273 6d3c 0572 9b3d 5d47 8dbd
00000180: ce9d a83d 2636 3cbd fa04 d3bc cae4 bf3c
00000190: f842 64bb 8689 c5bd d0b8 a4bd 8687 ae3d
000001a0: 5e22 8cbd 6456 2b3c 050a 363d 149a 003d
000001b0: cb23 39bd 9c2a bbbc b182 13bd f018 5d3d
000001c0: 8f2d c03c 64ea 1abd 2dc9 a73c d1c3 26bc
000001d0: 00ce ca3d c7fc 203d 6392 ee3d 9765 22bd
000001e0: eac1 2dbc 1250 53bd 9faa 753d 9597 b83c
000001f0: 7ebb c1bd 8d76 6e3d 4a57 83bd fd4e 0c3d
00000200: 1ce1 85ba 56a0 81bc 2c20 68bd fa72 413d
00000210: bb46 ab3b 75a4 d93c 52a3 38bc 8586 2e3d
00000220: 723c 8f3c 50c9 9abd 30ba 29bd 4e12 b13d
00000230: d23e 8fbc 08fe 49bd b088 a7bd 7a11 19bc
00000240: 0577 8dbc 8acf 9e3d a13d a53c c0f3 053c
00000250: 76b8 be3c ad59 b53c 89a6 7c3d 04e5 e4bd
00000260: d61c 8f3d 1dc7 223c 1e81 1c3d 996e 42bc
00000270: 030d 2b3d 55ef 9bbd 88d5 ebbc e89a 93bd
00000280: 0e6d 84bd b7f4 0bbe 3ef2 a5bd 062c dc3d
00000290: 70b2 163b 66be 163d 8e57 aebc 18f7 c8bc
000002a0: 5beb f63c f887 493d c951 68bd 37a4 8ebc
000002b0: 9f7d 9bbd d60d 013e 6752 dc3c 39af 523d
000002c0: 9306 51bc 7428 3ebb 5875 f239 e717 b1bd
000002d0: 0131 0f3d 4a61 b1bc c75d eebd f215 46bc
000002e0: 7eee bc3d aba3 e7ba bb8d 3e3d b87b 91bd
000002f0: c2e3 8ebc d62f 583d 5ff9 dc3c 5bd1 2e3d
00000300: 269d 5c3d 53ce 5dbd e06b a0bb cecb 813d
00000310: 3873 283d aa6b 533c 022d 493d 2679 a4bd
00000320: 3f27 7b3d 1c71 b9bc c3d6 d2bc a21a edbc
00000330: e9e1 83bb 66cd 643d 183c 52bd 23a4 283b
00000340: da21 9d3d ea53 86bc e3d7 603c ccdb 963c
00000350: 0904 bcba 1fe3 533d 05f4 6dbd d86b c33c
00000360: 3765 e63c be49 593d 3c20 f63c 7279 e9bd
00000370: b01d 963d c257 0dbc 866f a2bc 7aa3 e4bc
00000380: ef32 da3c ce12 48bd f236 a5bd 6481 923c
00000390: d6a4 763d 72e1 c8bd e976 8f3d 8de1 d03c
000003a0: a817 d33d 5ad1 3a3d 39b8 673d f6e4 2abd
000003b0: f94e 27bb 5d44 af3d 16cc 8cbd 2f0e 593d
000003c0: 288b 0b3e 6bb4 c5b8 c0f4 92bd 5ee7 b5bc
000003d0: 2869 a8bd 6300 6dbd 7f19 7e3c edc2 a43c
000003e0: 8a4e 9f3c 4616 953c 96f8 a5bc 4273 b7bc
000003f0: a23f cdbd a023 253d a911 163c e6fd 25bc
-0.07496522 0.04603735 -0.0093267 0.0055750785 -0.094812594 0.016919514 -0.06711792 0.055249058
-0.05423363 -0.0077696675 -0.06301012 -0.015065464 0.035103034 -0.0013390275 -0.013795185 -0.07554759
0.1048715 0.05122945 -0.05823811 -0.0060854307 0.07060503 0.006111684 0.08170011 -0.04387312
-0.012894226 0.064098485 0.0019707854 0.092967264 -0.0364251 0.023021596 -0.002574749 -0.068984814
0.0057377103 0.07727683 -0.008857937 0.036393747 -0.054667547 -0.0502611 0.026067594 -0.0016447345
-0.08672714 -0.0783043 0.040197846 -0.013667195 -0.057213936 0.040906765 0.0870584 -0.021323202
0.028330771 -0.040018838 -0.0036407989 0.0141539145 0.07674455 0.07218113 -0.0028721148 0.06029231
-0.012193693 0.08696249 0.0376879 -0.03682606 0.0058848504 -0.0021524334 0.07288247 -0.02385909
0.0032131623 -0.0772078 0.05295685 0.045199964 -0.040424157 0.009978802 -0.027082706 0.053495646
-0.06405759 0.04975984 -0.0022813694 -0.036742717 0.04824334 0.04081533 -0.076873265 0.104499534
-0.092578985 -0.013796418 0.044598334 -0.05653989 0.109703355 -0.0042602113 -0.039165534 0.055917222
-0.029834092 -0.0033137847 0.022047576 -0.075862065 0.040692423 0.014492961 0.07590107 -0.06898377
0.08233224 -0.045950077 -0.025759209 0.023424525 -0.0034829956 -0.09645371 -0.08043063 0.08521943
-0.068424925 0.010457609 0.04444315 0.03139694 -0.04520015 -0.022847466 -0.03601331 0.05397886
0.023459224 -0.03782119 0.02048167 -0.010178522 0.09902573 0.039303567 0.11649015 -0.039647665
-0.010605315 -0.051590033 0.05997717 0.022533217 -0.094595894 0.058218528 -0.064131334 0.034255017
-0.0010214183 -0.015823524 -0.056671306 0.04722879 0.0052269376 0.026567677 -0.011269407 0.042608757
0.017484877 -0.075579286 -0.041437328 0.086460695 -0.01748601 -0.04931453 -0.08180368 -0.009342546
-0.017268667 0.07754429 0.020170989 0.00817579 0.023281317 0.022137487 0.061682258 -0.11176494
0.06987922 0.009935168 0.038209073 -0.011867189 0.041760456 -0.07614008 -0.028788343 -0.072072804
-0.06466113 -0.1366757 -0.08102845 0.10750584 0.002299454 0.03680267 -0.021281984 -0.024531886
0.030141523 0.049201936 -0.05671862 -0.017412288 -0.0759232 0.12602934 0.026894761 0.051436637
-0.012757915 -0.002901581 0.00046245265 -0.08647137 0.034958843 -0.021652836 -0.1163898 -0.012090193
0.09225176 -0.0017672678 0.046521883 -0.071036756 -0.017442588 0.052779995 0.026974378 0.042680126
0.053860806 -0.054151844 -0.004895672 0.06337701 0.041125506 0.012904087 0.04911519 -0.0803092
0.061316725 -0.022636943 -0.025737172 -0.028943364 -0.0040247333 0.055859946 -0.05132684 0.0025732599
0.07672472 -0.016397435 0.013723346 0.018415354 -0.0014344464 0.05173027 -0.058094043 0.023855135
0.028124435 0.05304884 0.030044667 -0.11400117 0.07329881 -0.00862688 -0.01982857 -0.027909983
0.026635615 -0.04884606 -0.080671206 0.017883964 0.060215794 -0.09808625 0.07005102 0.025498176
0.103072464 0.04560981 0.056572173 -0.04172226 -0.002552925 0.08557961 -0.06874864 0.052992042
0.13627303 -9.4272975e-05 -0.071755886 -0.022205051 -0.08223182 -0.057861697 0.015509008 0.02011248
0.01944663 0.018199097 -0.020260137 -0.022393826 -0.100219026 0.040317178 0.009159484 -0.010131335

mlp1.2.bias f4 [100]
00000000: 0596 7b3c d614 1b3d 0cc3 10ba ae81 253d
00000010: 3f4e 7c3e a7f1 b53c 46f5 4a3d b029 a6bd
00000020: e517 1ebc f8b9 af3c e4ab ae3c 8d16 26bd
00000030: 8f37 713d 2bcf 783d 58dd f93d 3c3a 54bd
00000040: b75e 57bd 2951 b43d 01f1 983b 58e6 7dbd
00000050: 6d54 1bbd dffb c03c ad41 97bc 659a bb3d
00000060: a6cd 6cbd ff82 c93d 4e0e 0c3d 4a82 05be
00000070: 10bb a8bc a927 3fbd 3ed7 c4bc bff1 1dbd
00000080: 19f3 ab3b 66bc ddbd b4dd 83bd 4ab8 50bd
00000090: aaaa 04be ac50 1ebd e6eb 62bd 378b d2bd
000000a0: bd13 6ebd 54dc 693d 0f7c cebd 0f12 8cbd
000000b0: 010d 1b3d efe3 9b3d cbd7 95bc 5d5c 8fbc
000000c0: d3a3 95bd 45d9 67bd e6d5 b83d 3932 a93d
000000d0: 2f90 48bd 76b9 a3bd 988a 11be c3d1 bbbd
000000e0: 5083 0e3e 34c8 4c3d 45b3 c5bd 43e0 0bbd
000000f0: 198f 053e 0878 c0bd daf3 b03d de1a a33d
00000100: 08e3 a5bd 5f3c 5f3c 2286 fabd 476b 513d
00000110: 9a6c 79bd b37f 543e 3354 0abc b69f bbbd
00000120: 30c4 f0bc 5acc 3c3d e2c3 7cbd c282 563d
00000130: 225f 3d3a 05ae d6bd 2733 1dbd 529e 853d
00000140: 121b 9dbc 5f23 b93d bfe8 d43d 0ab3 7a3c
00000150: 49bb de3c 4022 97bd 5b4b acbd 5780 2bbd
00000160: 8c78 f6bd 5308 683d d87c a0bd f7c4 ef3c
00000170: 16ac d83d 1475 153e 70cc 69bd a36f 3bbe
00000180: 4fde 5bbd 7cfd 87bd 6174 04bd d83c 823d
0.015355592 0.037861668 -0.00055222283 0.040406875 0.24639224 0.022209955 0.049550317 -0.0811342
-0.009649252 0.021450981 0.021322198 -0.04054885 0.058890875 0.060744446 0.12200421 -0.05181335
-0.05258056 0.088045426 0.004667402 -0.06198725 -0.03792231 0.023557601 -0.018463934 0.09160308
-0.05781331 0.09839439 0.03419333 -0.13037983 -0.02059701 -0.046668682 -0.024028417 -0.038560625
0.0052474854 -0.1082695 -0.06438771 -0.050957 -0.12955728 -0.038651153 -0.05540075 -0.102804594
-0.058124293 0.057094887 -0.10082256 -0.06839382 0.0378542 0.07611834 -0.018291375 -0.017500097
-0.073066376 -0.05660369 0.09025173 0.08261532 -0.04896563 -0.07994358 -0.14213026 -0.09170868
0.13917279 0.049995616 -0.096533336 -0.03414942 0.13042869 -0.09397894 0.08640261 0.07964109
-0.080999434 0.013625233 -0.12232615 0.0511277 -0.060894586 0.20751838 -0.008442926 -0.09161322
-0.029390424 0.046093322 -0.061710246 0.052370794 0.0007223954 -0.1048241 -0.03837886 0.06524338
-0.019177947 0.090399496 0.10395955 0.015301475 0.027188914 -0.073795795 -0.084128104 -0.04187044
-0.12034711 0.056648564 -0.07836312 0.029268725 0.10579698 0.14595443 -0.057079732 -0.18304305
-0.053678807 -0.06640145 -0.03233755 0.06359261

mlp2.0.weight f4 [100, 100]
00000000: bd7e cabb f812 0f3d d840 fcbc 60cc d83d
00000010: b833 9ebd f217 fd3c 058a b13d 7785 debd
00000020: 85c3 6d3d 7efd 5f3a a38b 263d e81f df3d
00000030: bf45 0e3c f62c 91bc 2857 1f3d 0632 71bb
00000040: 6171 f4bc e569 623c ce30 9f3d e480 b4bb
00000050: 8ace c03c 1e96 30bd eaa0 31bb 58e2 b13d
00000060: 52ba 6a3d 1998 92bd 72d4 b0bc 2681 b8bd
00000070: 43cc 8f3d f87c c1bd 9b69 05bd b743 433c
00000080: 0445 21bd 02f3 36bc 0ded e2bc 3def b8bd
00000090: 8e38 903d 89d3 b43d c4d8 dfbb 7484 c03c
000000a0: f24f b53d f149 593d 153b c23d da77 10bd
000000b0: d22a 9c3d 76d3 a4bd 957e b33c 5388 d33d
000000c0: 6833 93bd e312 a13d f71f 243d de72 cd3d
000000d0: ca63 8bbd 7163 a13d 00c2 493d e048 dfbd
000000e0: 6e52 343c b064 93bd 5802 603b 41d7 e1bb
000000f0: 2822 0bbd d0e2 8b3d 93d4 c63d 3670 9abd
00000100: b02b 853d b959 e1bd 3add 6abd 2202 81bd
00000110: 754b 7abc fab7 eebd 7d6d de3c 134d aa3d
00000120: acd7 d8bd bc13 8b3d 13d9 4d3d cfcc 81bd
00000130: 2a61 08bb a878 633d 4984 23bd b870 42bd
00000140: 8405 c03d 9248 99bd 5590 a5bd 7e85 873d
00000150: 3892 a4bd 6c30 a63d 8a9d 0fbd fcb8 aebd
00000160: b464 893d c2e0 9c3d 71ae 5d3d 34be a33d
00000170: e2be f0bd 76c6 25bd 8c15 ae3d 1cfc aabc
00000180: 9484 473c 1e49 bebd 34df 53bd 3b5e 1f3d
00000190: 8242 28bd 6285 9cbd 63e9 d33d 23ae 4cbd
000001a0: a59f 8e3d 776a d5bd a0df 923d 8dd5 50bd
000001b0: 3674 01bd 6560 cd3c bedc 1abc 5e12 fd3a
000001c0: 7f56 d73c 752e b8bb 0b94 e2bc ccf5 e1bc
000001d0: 6ddf a03d 8886 9f3d f30e 9e3c c01e ac3d
000001e0: 9f0c 413c 0c63 57bb 0ba9 3a3a fcc1 3f3d
000001f0: 6f16 a63a 113d acbd 3287 87bd a271 48bb
00000200: 8c02 c63d 9647 88bb b371 4d3d 06cd 803d
00000210: 7d6f 8abd e080 be3d be12 4a3d 0ebe 91bd
00000220: 7c59 d13c 4860 893d f7ba cabd 06c2 a63d
00000230: 045f 52bd 27d7 873c d19d b0bd 6e63 433b
00000240: 26d8 acbc 9cc5 2c3d 653a 5bbd 2b8c 9d3d
00000250: 874f f4bd 1a97 023c a1ad 963d 66ab aebc
00000260: af4a a33d cd11 a03d 0999 26bd e8b5 fe3c
00000270: 930c fabb 0085 6c3d 7552 6cbd a450 73bd
00000280: f995 883d dacf 76bc 8441 9dbd bb3b a83d
00000290: 035e 5e3d 9309 3b3d f825 8ebb 092f 0fbd
000002a0: bb1d 033d 867e ee3d dd6b c93d aff9 60bd
000002b0: b2b7 0dbc 62c1 9a3d 86a9 83bd 46cf bc3d
000002c0: cad2 d73c 3e4c bcbd 5ee7 a13d 7aab e13d
000002d0: 95cd b9bd 8d86 2f3d 3f8f edb9 3c41 9b3c
000002e0: b5a8 3b3d 4b1a 773b 11ae adbb 0a8b c2bc
000002f0: 5701 b0bd a267 92bd e599 dbbb 7eaa 3ebc
00000300: c6ae 8d3d 3478 d2bb 4ea3 a9bd 848c ca3c
00000310: 302f c43d ad09 d4bc a9b9 d63d 010f bfbd
00000320: ffb5 c63c 29da a23c ec3f b0bd c4d2 cbbd
00000330: d2ca d5bd 1d76 903d 4232 63bd 4d0b 11bd
00000340: d876 ae39 f76d 02bc afea a33d 1d75 b1bc
00000350: ada4 b5bd bc21 11bd b647 1a3d 6147 f33d
00000360: fe73 85bd 6e92 743d 12ec 923d 566e a33c
00000370: 88d6 5abd f1b0 d63c fb84 d8bd b09f c3bd
00000380: 21aa 2d3c 7335 aebd f314 f13c bd5a 3c3d
00000390: 271c 7a3c 3c90 11bc 947c 9bbd 40ab 733d
000003a0: c17d fe3c 9e05 a8bd 67ab b7bd 39f0 48bd
000003b0: 1e57 ec3c f798 343d 7b6e 03bd cdb9 b33d
000003c0: 7fea 7dbd 0e5f 323b 8f7e 283d 95ae 01bd
000003d0: df8f 2f3d 0e8b 8c3d 9496 17bc 2443 e03d
000003e0: d588 843d 288e a23d 0ad4 673c e306 3f3d
000003f0: d5b8 6ebd e301 e8bc f4fb b8ba 1eca ad3d
-0.006179659 0.0349302 -0.030792639 0.105858564 -0.07724708 0.030895207 0.08668903 -0.108653
0.05804779 0.0008544548 0.04066051 0.108947575 0.008683621 -0.017721634 0.038901478 -0.0036803498
-0.02983922 0.013819193 0.07772981 -0.005508529 0.023535985 -0.043111913 -0.002710397 0.0868575
0.057306595 -0.071579166 -0.021585677 -0.09009008 0.07021382 -0.09447664 -0.032571416 0.011918
-0.03937246 -0.011166336 -0.027700925 -0.09030006 0.07042037 0.0882941 -0.0068312604 0.023500659
0.08853139 0.05304903 0.09483925 -0.03527055 0.07625355 -0.080481455 0.021910945 0.10328736
-0.07187539 0.078649305 0.040069547 0.10031675 -0.06806143 0.07880295 0.04925728 -0.10902572
0.011005981 -0.07196939 0.0034181084 -0.0068921153 -0.03396812 0.068303704 0.09708514 -0.07540934
0.06502473 -0.11003441 -0.057339884 -0.06299235 -0.015276779 -0.116561845 0.027151817 0.08315482
-0.10588011 0.067908734 0.050255846 -0.06337892 -0.0020809867 0.05553499 -0.03992108 -0.04747078
0.09376052 -0.07484545 -0.0808417 0.066172585 -0.080357015 0.081147045 -0.03506235 -0.08531377
0.06708661 0.07660057 0.05412144 0.07995263 -0.11755158 -0.04047247 0.085002035 -0.020872168
0.012177605 -0.0929129 -0.051726535 0.038908225 -0.04107905 -0.07642628 0.10347249 -0.049970757
0.069640435 -0.10420697 0.07171559 -0.050984908 -0.031604968 0.025070379 -0.009452043 0.0019307842
0.026286362 -0.0056207725 -0.027658483 -0.027583025 0.07855115 0.07789332 0.019294238 0.084043026
0.011782794 -0.0032865433 0.0007120526 0.046815857 0.0012671481 -0.08410085 -0.06617583 -0.0030585309
0.096684545 -0.0041589243 0.05015726 0.06289105 -0.06759546 0.09301925 0.04933428 -0.07116328
0.025555365 0.06707817 -0.09898942 0.08142476 -0.051360145 0.016582085 -0.08623851 0.0029813903
-0.021099161 0.042180642 -0.053522486 0.076927505 -0.11929231 0.007970596 0.07357336 -0.021321964
0.07973229 0.07815895 -0.04067329 0.031092599 -0.0076308935 0.057744026 -0.057695825 -0.059403077
0.0666923 -0.015064204 -0.07678512 0.08214518 0.054288875 0.045663428 -0.0043380223 -0.034956966
0.032010775 0.11645226 0.098350264 -0.054925617 -0.008649753 0.07556416 -0.064288184 0.09219222
0.02634563 -0.091942295 0.07905458 0.11019035 -0.09072415 0.042852927 -0.0004531089 0.018952005
0.04581519 0.003770488 -0.0053002913 -0.02374794 -0.085940056 -0.07148673 -0.0067016953 -0.011637328
0.06918101 -0.0064230207 -0.08283101 0.024725206 0.09579313 -0.02588352 0.104846306 -0.09329034
0.024256704 0.019879417 -0.08605942 -0.0995231 -0.104390755 0.07053778 -0.05546785 -0.035411168
0.00033276412 -0.007960788 0.08003747 -0.02166229 -0.088693 -0.035432562 0.037666045 0.11878849
-0.065162644 0.05970996 0.07173933 0.019950073 -0.05342725 0.02620742 -0.10572239 -0.09551942
0.010599644 -0.085062884 0.029428935 0.045984972 0.015265501 -0.008884486 -0.07592121 0.05948949
0.031065824 -0.082041964 -0.08968239 -0.04905722 0.028850134 0.04409119 -0.032087784 0.08775673
-0.06199121 0.0027217302 0.04113632 -0.031660635 0.042861816 0.0686246 -0.009252209 0.10950306
0.06471411 0.079372704 0.014149675 0.046637427 -0.05828174 -0.028321212 -0.0014113174 0.084858164

mlp2.0.bias f4 [100]
00000000: cff5 eb3b 0eaa 613d 2ac9 66bd f38f f2bc
00000010: b732 09bd fd01 01bc 940f 023e 532a 5bbc
00000020: 659f a83d f11b 713d 7e21 e6bc 574c 8a3d
00000030: 3433 8a3d 80ff 71ba ead7 103e 67c6 013e
00000040: 735c 813d 7692 423d 9409 e1bd 9fa9 aabc
00000050: 0585 1fbd 7faf 62bd d7ac c33d 5140 e2bb
00000060: 70e9 ac3d 3ec4 b63d 3e44 993d 7926 963c
00000070: f56b 42bd 0917 283d 5484 653e 1ed8 8cbc
00000080: e277 eebd 749a a13d fc4e 0c3e e2bd 3c3d
00000090: d055 79bd 80f4 f53d 8f5d 743c 40a5 793e
000000a0: 42b2 3bbd 09e0 0ebe 1e77 8fbd 1d72 57bd
000000b0: d870 a53d 7e3d 973c 0d84 83bd f2c4 423d
000000c0: e409 463d 0f4a d53c 8ffe 913c be73 0b3e
000000d0: e53f d83b b666 d1bc 8102 bd3d aa7c 8cbd
000000e0: dc48 a6bc 30b5 63bd ec58 cbbd a2fe 963d
000000f0: ebbe bebd 2f3c 033e dd0c 893d 2e7a 22bd
00000100: 2bb3 cebd 986b 883d f386 c03a 3264 3bbd
00000110: bf33 6fbd 0bd1 f2bc a206 963d 5a83 ce3d
00000120: 3edc 403a 3ca1 88bd 6ffd f23c 1102 c13d
00000130: 1a95 e1bd 9391 1e3c c88f 85bd 63ac 9f3d
00000140: 98dc b33d b955 e23d 4a6c 963d e436 babd
00000150: f8b5 c8bd 869d b0bd 6e31 dc3d 2172 94bd
00000160: 0e45 1fbd 3f39 a0bd 43d7 0c3e 2ff9 8dbd
00000170: 546b 74bc dbc0 bfbc 8908 1bbd 982b 64bd
00000180: 9fe5 8bbd f31e 8cbd a86d 4ebd 72b2 0dbe
0.0072009335 0.055093817 -0.05634419 -0.029609656 -0.03349563 -0.007874009 0.12701255 -0.01337679
0.08233527 0.058864538 -0.028092142 0.06752842 0.067480475 -0.0009231493 0.14144865 0.1267334
0.063164614 0.047502957 -0.10988155 -0.020832835 -0.038945217 -0.055343147 0.09554451 -0.00690464
0.08442962 0.08924149 0.07483719 0.018328892 -0.047466237 0.041037593 0.2241376 -0.017192896
-0.116439596 0.07890788 0.13702005 0.046079524 -0.060872853 0.12009525 0.014914884 0.24379444
-0.045824297 -0.1395265 -0.07005142 -0.05259906 0.08078164 0.018461939 -0.06421671 0.047551103
0.048349276 0.02603629 0.017821578 0.13618371 0.0065994137 -0.025561672 0.09228993 -0.06859715
-0.020298414 -0.055592716 -0.0992907 0.07372786 -0.093137585 0.12815927 0.066919066 -0.0396673
-0.10092767 0.06661147 0.0014688656 -0.04574985 -0.05839896 -0.029640695 0.07325484 0.10083647
0.00073570374 -0.06671378 0.029661862 0.09424222 -0.11014767 0.009678262 -0.06521565 0.07796552
0.08782309 0.110515065 0.07344873 -0.09092501 -0.09800333 -0.08623795 0.107516155 -0.07248331
-0.038884215 -0.07823419 0.13753991 -0.069322936 -0.014918167 -0.02340739 -0.037849937 -0.055705637
-0.06830906 -0.068418406 -0.050397545 -0.13837603

mlp2.2.weight f4 [50, 100]
00000000: 9a43 a53d daad adbd 01d5 1d3d 6f03 7ebd
00000010: b9c3 363b 082e adbb 9bda cdbd 7f6b 0f3e
00000020: 87d0 b5bd 22d4 003c 2a01 2ebd 00ed 923d
00000030: d022 d63d 971a a83d f063 08be a7ab d4bc
00000040: 5a1c 013d 1047 a73d a84f f93b 6f6f b33c
00000050: c3d0 d03c c625 ddbd 9f6c 70bc 833b 51bd
00000060: 2e74 84bb 5538 1abd 04d4 cabc 3ecc 1d3d
00000070: f086 5abc 7137 6ebd d866 5c3e 7b0d 3fbd
00000080: 10e9 863a 8cd4 e8bd 47bb cebd fdbb ad3d
00000090: f97e 693d 8637 f0bd a11f 8a3c 44df 2b3e
000000a0: 014d cdbb f62c b1bd 5d5c bdbd 5b78 fabc
000000b0: a9c3 083d b3ef 3e3d 1412 53bd f1f0 a53c
000000c0: 9286 15bc 7303 f63d 2944 d43d a3e2 e6bc
000000d0: 2aa5 fabc d18c 8bbd 1c8b df3d a25b 4f3d
000000e0: 376e 993d e643 1ebc feaa fa3c f105 ab3d
000000f0: ec09 993a 9e5c c43d f31a ffbc 6d0a 67bc
00000100: ecfe a43a 67ed 173d f22c dbbc 979f e03c
00000110: 1f54 cf3d f985 913d 7897 29bd 006a 443d
00000120: 269c f1bd 899b b7bc b77d 19be 6346 a73d
00000130: 9d72 07bd c79b 97bd 77ed 11be 0984 cfbd
00000140: d742 7cbd e732 643d 7237 cb3d 09ff 34bc
00000150: d011 a03d eca4 9e3d d431 923d f84f 82bd
00000160: f440 f3bc 7636 b9bc e056 fdbc b4ab 753d
00000170: 2cc5 cd3d 6170 9b3d abe5 703d 65b2 05bd
00000180: b919 103e 6d51 c4bd dc14 02bd ac84 47bd
00000190: cb09 9fbb 5478 b5bd 876d 223d 6f5d 36bc
000001a0: 0228 c7bd 3dca 9c3d a00f dd3b bd6f 4f3d
000001b0: 832c d13d bb64 a5bd 6f11 c8bd 19ad b7bd
000001c0: f49d 98bd a8aa a93d 8d7b b5bb be4d dabd
000001d0: ac66 a53d 1468 cabd ff3c b5bd 58b6 93ba
000001e0: 6917 9bbd db4e 9abd 0ca0 e3bc 3827 afbd
000001f0: ca46 e9bb db6b abbc 4974 d5bd 64a0 01bd
00000200: 0f88 733d e6dd 8c3d 2e59 29bd 4529 5ebd
00000210: f2c6 dcbd 03c9 a93d 1c24 ce3c acbd b5bd
00000220: 4fae cbbc 4ebc acbd 63d4 aa3d 6c00 bcbd
00000230: 6418 913d b4fe 87bc 95c2 fd3d bba1 2cbd
00000240: f8e0 4a3d 84e3 7ebd cb2d b1bd 5cce 28bd
00000250: e61b 7e3c 15c5 59bd 9c2a e3bc 904a ba3b
00000260: 2026 883d 7314 2e3d c52e 9e3d 0534 b6bd
00000270: 14b2 ddbc 8e23 a8bd 8479 b43d dc2d dbbd
00000280: 400a 8cbd 2760 2bbd 8533 ad3c 854c fc3d
00000290: 197f f23d c058 953d 3308 b0bd fe91 39bd
000002a0: d4d7 ab3d 6a7a 1cbd ff9a 01bd 04a3 ccbc
000002b0: 9ab9 e73b 0b3f b6bd ea17 c23d 1c04 b13d
000002c0: 1325 3dbd 3d4a eab8 b802 713c 2601 55bd
000002d0: a79b a13d 0767 afbd 7554 82bd 2b1f c6bd
000002e0: 6417 233d c2a5 023c f636 a23d 61f9 8d3d
000002f0: 474e 6e3d eed4 d83d e786 99bd 9f63 d0bc
00000300: 2134 a0bd 286d 84bd ffff d23d fb53 2abd
00000310: cc97 b6bd 5907 3bbd 333f 173d 4939 a4bd
00000320: 12fb 5dbd b338 d63d cd9a b6bd 5696 a2bd
00000330: f10b f23c c138 bb3c 51a7 313c d1d9 8cbd
00000340: b45c 893d 9774 c9bc 6074 c4bd 3c1c e3bc
00000350: 1fe9 ac3d 2872 833d ebca ad3d 2295 68bd
00000360: 9e5f 5c3d 24ca fbbc d133 4ebc 73b1 7abd
00000370: 68ae 07bc 1dec df3c 8312 fc3c 7885 083d
00000380: 5ac6 8d3d 53a2 69bd 5302 c0bd 6823 c4bc
00000390: 3365 c1bd 163d e23d d8a6 88bd 33f9 eb3d
000003a0: 7bd5 61bc afbe 79bb d611 1bbe cbcb d9bc
000003b0: b627 9f3d d978 d2bd d336 c9bc 6f8a 573c
000003c0: ae26 983d 18d4 f8bc c0bc 51bd 322d 0b3d
000003d0: 8210 093d bb44 6f3d 4bb5 bdbd d3cd 6cbd
000003e0: ca53 95bb ae5b 053e e0a5 a4ba 0b99 663b
000003f0: d880 173d ffed 983d e7cf 3cbb ce28 44bd
0.080695346 -0.08480425 0.038533214 -0.062014993 0.0027887656 -0.0052850284 -0.10051461 0.1400585
-0.08877664 0.007863076 -0.04248158 0.071741104 0.10455859 0.082081966 -0.13319373 -0.025960756
0.03152118 0.08167851 0.0076083727 0.021903722 0.02549017 -0.1079822 -0.014674335 -0.051082145
-0.00404217 -0.03765138 -0.0247593 0.03852486 -0.013337836 -0.05815834 0.21523607 -0.046643715
0.0010292847 -0.11368665 -0.10094314 0.084831215 0.057005856 -0.1172934 0.016860785 0.16784388
-0.006265283 -0.08651154 -0.092461325 -0.030574968 0.03338972 0.046615314 -0.051530913 0.020256491
-0.009126322 0.12012377 0.10364563 -0.02818424 -0.030596334 -0.06813968 0.10915205 0.050624497
0.07491725 -0.009659743 0.030599114 0.083507426 0.001167593 0.09587978 -0.03114078 -0.014101607
0.001258818 0.03709164 -0.02675483 0.027419848 0.10123467 0.071056314 -0.041404217 0.047952652
-0.11797361 -0.022413032 -0.14989363 0.08167722 -0.033068288 -0.07402759 -0.14250742 -0.101326056
-0.06158718 0.055712607 0.09922685 -0.011047133 0.078158975 0.077463 0.0713841 -0.06362909
-0.029694058 -0.022608977 -0.030925214 0.059978202 0.10047373 0.07589794 0.05881278 -0.032640833
0.14072312 -0.09585843 -0.031758174 -0.04871051 -0.0048534623 -0.088608414 0.039655235 -0.011130675
-0.09724428 0.076557614 0.0067462474 0.05064367 0.10213568 -0.080758534 -0.0976895 -0.08968563
-0.07452002 0.08284503 -0.00553841 -0.106593594 0.08076224 -0.098831326 -0.08849525 -0.0011269553
-0.075728245 -0.07534572 -0.027786277 -0.08552402 -0.0071190344 -0.020925453 -0.1042257 -0.0316471
0.059455927 0.06878261 -0.041344814 -0.054238576 -0.10780133 0.08290293 0.025163703 -0.08874068
-0.02486339 -0.08434354 0.08341291 -0.09179768 0.0708473 -0.016600944 0.12390629 -0.042146426
0.049530953 -0.062228695 -0.086513124 -0.041212425 0.015509581 -0.053166468 -0.027730279 0.005685158
0.06647897 0.04249997 0.07723764 -0.08896641 -0.027062453 -0.082099065 0.0881224 -0.10702106
-0.068378925 -0.041839745 0.02114273 0.123192824 0.11840648 0.07292318 -0.08595314 -0.045305245
0.08390775 -0.03820268 -0.031641956 -0.024980076 0.007071686 -0.08898743 0.094772175 0.08643362
-0.046177935 -0.000111718175 0.014710121 -0.05200305 0.078910165 -0.08564573 -0.06363765 -0.096739136
0.03981723 0.00797409 0.07920639 0.06932331 0.05818012 0.10587488 -0.07496434 -0.025438128
-0.07822443 -0.064661324 0.10302734 -0.041583996 -0.08915672 -0.045661304 0.036925506 -0.08018739
-0.054194517 0.10460033 -0.08916245 -0.079388306 0.02954671 0.02285421 0.010843114 -0.06877483
0.06707135 -0.024591727 -0.09592509 -0.027723424 0.08442902 0.06418258 0.08485969 -0.05678285
0.053802125 -0.030736037 -0.012585596 -0.061204385 -0.008281328 0.027334267 0.030770546 0.03333041
0.06922598 -0.05703957 -0.09375443 -0.023942664 -0.0944313 0.110468075 -0.06672448 0.1152214
-0.013783808 -0.003810804 -0.15143523 -0.026586434 0.07771246 -0.10276956 -0.024562275 0.013155564
0.074292526 -0.030374572 -0.051205397 0.03397865 0.03346301 0.058415156 -0.092630945 -0.057813477
-0.0045571076 0.13023254 -0.0012561642 0.0035186436 0.03698811 0.07467269 -0.0028810443 -0.047890477

mlp2.2.bias f4 [50]
00000000: a7b4 c03d f1d8 0cbd ee3a ffbd 4373 0c3e
00000010: 9463 23be 6b92 b2bd 04b2 a53d 2110 d9bb
00000020: be26 c03d 58ac 33bd 66de 2a3b 3acb 8bbd
00000030: e504 79bd 38e3 4f3d 12f8 13bd fe5d a53c
00000040: 3cfa ce3d 622e 0a3d 6209 fabc 9274 36be
00000050: ccd5 94bd 2b45 963c 9ef6 243c 6f5a 083d
00000060: d304 c5bd 48d1 ae3d 8ba0 18be 1443 ad3d
00000070: 1788 f4bc 5b00 b83d 6632 3ebd 77ed 78bd
00000080: 1010 5dbd f47c 543d 1a89 a63d 8a83 5cbd
00000090: 80b3 143e 010d 7bbd 05f2 5bbd 4559 1bbe
000000a0: f927 04be 4ca8 1e3b 1ae8 00be f474 49bd
000000b0: b245 423d fd1e a53d c4f5 afbd c886 603d
000000c0: ae1e 52bc 4192 d1bc
0.09409457 -0.03438658 -0.12462412 0.13715844 -0.15955955 -0.08719333 0.080905944 -0.006624237
0.093823895 -0.04386553 0.0026072501 -0.06825872 -0.060795683 0.050753802 -0.03612525 0.02018642
0.10106322 0.03373564 -0.030522052 -0.17817906 -0.07267341 0.018343529 0.010068564 0.03328937
-0.09620061 0.08536011 -0.14904992 0.0846006 -0.029850049 0.08984443 -0.046434782 -0.06077334
-0.053970397 0.051876977 0.08131619 -0.053836383 0.14521599 -0.0612917 -0.053697605 -0.15170772
-0.12905873 0.00242092 -0.1258854 -0.0491838 0.047429748 0.08062551 -0.08591798 0.054816037
-0.012824697 -0.025582435

attention.0.weight f4 [100, 200]
00000000: ee31 9d3c 6036 b0bc 2494 1abd 70ec 73bd
00000010: 92b8 1dbd 1836 fc3c 6b97 36bd ee7f 5dbd
00000020: dec3 c73c 2d95 5ebd 522d 003d 56d0 83bc
00000030: 65da 1ebd bed2 a83c 7889 df3c a83b 76bd
00000040: cdb9 e53c 3d8f 50bc a4a3 a83c 40f0 2f3d
00000050: d21a 683d d98f f23c 4534 65bc 189a 323d
00000060: 0696 d23c a8ce 67bd 4c0c 813d d146 2fbd
00000070: e28e 88bd 3fe9 683c 2d61 83bd f03d 4cbb
00000080: c4a2 b1bc 2d22 823d 1c5c 003d 7047 81bd
00000090: 38e5 aebc dd77 65bd 492e 7f3d 79dc 15bd
000000a0: 0b29 ac3b 51c0 20bd 280b dbbc cb4a 19bc
000000b0: 15cb 013b 2b28 483d 77cb 63bd 572c b73c
000000c0: d9bf 82bd 1128 a5bc ec1e 523d 6ed2 acbb
000000d0: 7f84 0e3d 8457 42bd e95d 693d 522a d7bc
000000e0: 0840 2d3d c0c3 0fbd 14cd 3d3c b980 00bd
000000f0: 470d 0b3c e87f 3f3c 3b77 183d 1146 763c
00000100: 7aaf c73c 130f 56bc 0b08 3b3d bdb2 8dbb
00000110: f909 873d e962 6e3d ac7d 54bd f64b 9fbc
00000120: 4368 6abc 7e09 28bd ebed 8e3d c207 8e3d
00000130: 81a4 35bd d551 9cba 89e9 6e3d 2048 233d
00000140: 3a1d 8a3d 9c21 22bc 978f 4ebd 0398 913c
00000150: 496e 7a3d 18de 47bd 1ee6 e2bb 9d32 8bbd
00000160: 9dda c93c c31d 653d 57db 04bc 0277 e43c
00000170: d894 72bd 61a0 72bd f239 38bb f645 8bbd
00000180: e631 5ebb 7296 59bc bb65 83ba f1ed 793d
00000190: 3449 313c 143c 5fbd 28c8 0e3d 4a5b 76bd
000001a0: c623 89bd 1ea2 dfbc 7138 1b3d e458 0a3d
000001b0: f1de 4bbd e015 13bd e3f7 3d3d a114 4abd
000001c0: 5d5a 263c 0055 05bb 66f5 213d 9af9 f13c
000001d0: 818f 36bd ea0f 4e3d 706a a5bc 57d7 233d
000001e0: bf5b 563d e453 19bb 31cf ec3b a82e 893d
000001f0: f1d1 413b 82c0 02bd 1899 153d c3bb 8a3c
00000200: f873 09bd 24b1 373d eca5 43bd 3b31 87bc
00000210: 520f 633b 6f93 453d febb 8cbd 46fb 523c
00000220: 043e 863d 9282 6b3d bb32 c4bc 0bc2 803d
00000230: 616f 593d 164d 65bd 4a42 85bc bb7c 8cbd
00000240: 0d56 133d d2c2 56bd 9a0b 9ebc 0fe3 5e3d
00000250: 0a4b 783d 6be1 adbc b04b 903a d8b5 30bd
00000260: a03e 823c a207 e33c 61fd 0fbd 3c04 c73c
00000270: fef8 40bd bd7b 4dbc 9a4f 6fbd 64ac 81bd
00000280: de9c 7fbd 854f babb 1f00 5fbd c16d 263d
00000290: cbc0 683d 75c6 d4bc e9ca 15ba 2ab1 d6bb
000002a0: d322 8bbd 1382 0f3d ffd7 1f3d be79 66bd
000002b0: d6e6 f53c aaaf 7abd da2f 85bd 422f 3d3c
000002c0: c2de 6dba 9765 8b3d 86c8 803c aeb3 e7bc
000002d0: 36a5 71bd 32ad 88bd 8e85 313d 1448 6ebd
000002e0: ea03 dabc f062 fcba 6f50 89bd af39 193d
000002f0: 0e27 843d 4797 ab3c 97e7 603c 1cbc de3c
00000300: f1a4 9a3c a66e 27bd 8814 25bb 2b17 02bc
00000310: 19e6 d9bc df6a 7e3d 9712 1ebd a6b6 96bc
00000320: f2fd 763d a610 8dbd 6388 59bc 536a 36bd
00000330: 2844 813d 6b20 efbc 5524 f3bc bfe0 b4bc
00000340: a87d 763d 7461 d0bc 60f6 043d 40ae e43c
00000350: 98e2 fc3c 2a08 e03c b8f1 f3bc 398f 6abd
00000360: 96b7 89bd ec9e ad3c f628 783d b01c 103d
00000370: 5a40 a33c a45b a33c 61c4 71bc ae77 713d
00000380: 8168 77bd bbd6 3ebd 38f7 bb3b 6d3c 9abc
00000390: 4ef6 0d3d 719c 5cbc aa1a 273d 7e95 7a3d
000003a0: 851a 4d3d 37af 41bd 3a46 edbc be26 983b
000003b0: ba0e 483d 89d4 febc 5bd2 89bd e895 3d3d
000003c0: fd25 573d 5425 d3bc 0dc8 07bc 9768 70bc
000003d0: b319 26bd 9eaf 27bd 9641 10bd c8f8 33bd
000003e0: df38 8bbc 8e78 89bd 165d cebc e10c fb3b
000003f0: f060 8a3d e843 203d 7b0a 9cbc 1749 7d3c
0.019188847 -0.021510303 -0.037738934 -0.059551656 -0.038506098 0.030787513 -0.044577997 -0.05407708
0.024385389 -0.054341484 0.03129322 -0.016090553 -0.038782496 0.020608302 0.02728723 -0.060115486
0.028042698 -0.012729463 0.020585842 0.04295373 0.056666203 0.029609608 -0.013989513 0.043603987
0.025706302 -0.056593567 0.063011736 -0.042792145 -0.06667878 0.014215766 -0.06415019 -0.0031164847
-0.021684058 0.06354175 0.031337842 -0.06312454 -0.021349534 -0.056022514 0.0623 -0.036587212
0.005253916 -0.039245907 -0.026738718 -0.009356211 0.0019804884 0.048866432 -0.05561396 0.02236001
-0.06384248 -0.020160707 0.05129902 -0.0052741086 0.034794327 -0.047446743 0.056974325 -0.026265297
0.042297393 -0.03509879 0.011584539 -0.03137276 0.008487052 0.01168821 0.037223082 0.015031354
0.024375666 -0.013065117 0.045661967 -0.004324286 0.06593699 0.058199797 -0.051877663 -0.0194454
-0.0143070845 -0.041024677 0.06978973 0.069350734 -0.044346336 -0.0011926243 0.058328185 0.039863706
0.06743856 -0.009895708 -0.050429907 0.01777268 0.061140332 -0.04879579 -0.0069244048 -0.06796763
0.024640376 0.055936586 -0.008108935 0.027888779 -0.05922398 -0.05923498 -0.002811071 -0.06800453
-0.0033904254 -0.013280498 -0.0010024825 0.061017934 0.010820676 -0.054500654 0.034858853 -0.060145654
-0.06696276 -0.027298983 0.037895624 0.03377618 -0.04977316 -0.035909534 0.04637898 -0.04933608
0.01015338 -0.0020344853 0.03954067 0.029537965 -0.04457045 0.050308146 -0.020192355 0.040000286
0.05233359 -0.002339595 0.0072268476 0.06698352 0.0029574598 -0.03192187 0.036522955 0.016935235
-0.033557862 0.04484667 -0.047765657 -0.016502967 0.0034646583 0.048236307 -0.06871794 0.012877291
0.06554797 0.05749757 -0.023949971 0.06287011 0.053084735 -0.055981718 -0.01626696 -0.06859728
0.035970736 -0.05243189 -0.019292641 0.05441576 0.060618438 -0.021225652 0.0011008885 -0.04314217
0.015899003 0.0277136 -0.03515375 0.024294011 -0.047112457 -0.012541709 -0.058425523 -0.06331709
-0.06240546 -0.005685749 -0.054443475 0.040632013 0.056824487 -0.025973538 -0.0005714135 -0.0065518813
-0.067937516 0.035036158 0.03902435 -0.056268446 0.030017298 -0.061202683 -0.065032676 0.011546912
-0.0009074026 0.06806486 0.015720617 -0.02828392 -0.058995448 -0.066736594 0.04334026 -0.058174208
-0.026613194 -0.001925556 -0.067047946 0.037408527 0.064527616 0.020946158 0.01372709 0.027189307
0.018877478 -0.040877007 -0.002518924 -0.007940094 -0.026598977 0.06211364 -0.038591947 -0.01839764
0.060300775 -0.06887941 -0.013277146 -0.044534992 0.06311828 -0.029190263 -0.02968041 -0.022079824
0.06017843 -0.025437094 0.032461524 0.02791512 0.030869767 0.027347643 -0.029778346 -0.057265494
-0.06724469 0.021193944 0.06058594 0.03518361 0.019928146 0.019941159 -0.014756293 0.058952026
-0.060402397 -0.0465915 0.005736258 -0.018827641 0.034658723 -0.013465033 0.040796913 0.061177723
0.05007412 -0.04728624 -0.02896415 0.0046432903 0.04884217 -0.031107204 -0.06729575 0.04628554
0.052526463 -0.025774635 -0.008287442 -0.014673374 -0.040551852 -0.040938966 -0.035218798 -0.04393843
-0.016994892 -0.06712447 -0.025190871 0.0076614474 0.067567706 0.03912726 -0.019047966 0.0154593205

attention.0.bias f4 [100]
00000000: c9ba 2bbd da07 be3c 5381 e2bc 3100 86bd
00000010: 5f51 a13c 04ec 33bd ae28 ad3d 8260 f4bc
00000020: 20f0 a3bc 7489 eebb 4d53 d73c 7691 903d
00000030: b3ba 05bd 816f 4fbd f70f 7e3d 53d6 c7bc
00000040: 5064 71bd 9996 82bd 35a2 0d3d 405d e43c
00000050: d6f5 1f3d a0be a33d e818 5a3d 92b3 21bd
00000060: 26a6 1bbd f05a ff3d f730 4abd 1753 26bd
00000070: 9425 b9bc c19a 253b e402 8ebd 480e dabc
00000080: 567e b7ba 410c 35bd 6a4e 85bd 3131 c13c
00000090: 924b bc3d fa25 a8bc 5a73 1dbc cf54 dd3c
000000a0: e917 853d 273c d23c 4600 8b3d bb47 993d
000000b0: b979 b2bb 75f0 8e3d 3ce2 26bd 5e27 41bb
000000c0: e1a7 7b3d 244b 58bd 28c7 a83c a9d5 d73d
000000d0: 3f56 1b3d 4f78 e1bc 82fb 553c 8390 3d3d
000000e0: 79eb 19bd 5f45 7dbd 1e55 7dbd 4202 5f3d
000000f0: 52b1 febc 77b5 693a 1a9a d53c 6c7c 273c
00000100: 13df 04bd ed0a 2e3c 43a1 563d 65cf 39bd
00000110: cfa8 95bd 5fe6 01bd 8250 45bd 3829 953d
00000120: 8722 693d 1504 85bd a2ef 1b3d a024 5c3d
00000130: dc72 163e ed8f 693d d91c 563c 26b1 473d
00000140: c6d4 63bd 5834 9e3a bcff a83d 50b8 9a3c
00000150: 928d 553d 09f2 293d 3753 99bc 77b4 04bc
00000160: 5e80 ed3c 7bb7 833d 1b06 11bd eb2b 913d
00000170: 1aaa 1dbd 8de5 d83d 4de6 6a3d 214c 41bc
00000180: 4c3b f5bb 7f80 d33d 556c 673d 67dd 88bd
-0.04192618 0.023197103 -0.027649557 -0.06543005 0.019692121 -0.043926254 0.08455025 -0.029831175
-0.020011961 -0.0072795693 0.026284838 0.070589945 -0.032648753 -0.050643448 0.062026944 -0.02439419
-0.058933556 -0.063763805 0.03457852 0.027876496 0.039052807 0.07995343 0.05324641 -0.039477892
-0.03800025 0.12468517 -0.049363103 -0.040606584 -0.022600926 0.0025269242 -0.06934145 -0.026618138
-0.0013999443 -0.04420114 -0.06509097 0.023583027 0.091941014 -0.020525921 -0.0096100215 0.027017979
0.06498701 0.025663448 0.067871615 0.074843846 -0.0054466394 0.06979457 -0.040743098 -0.0029472928
0.0614394 -0.052806035 0.020602778 0.10538799 0.037924048 -0.027523188 0.013060452 0.046280395
-0.03757808 -0.061833736 -0.061848752 0.054445513 -0.031090412 0.0008915285 0.026074458 0.010222536
-0.032439303 0.010622722 0.052399885 -0.045363802 -0.07307588 -0.03171384 -0.04817248 0.072832525
0.056917693 -0.06494919 0.03807033 0.053745866 0.14692253 0.057022024 0.013068401 0.048752926
-0.05562284 0.0012070043 0.082519025 0.018886715 0.052136965 0.04149059 -0.018716438 -0.008099667
0.028991874 0.064314805 -0.035406213 0.07088455 -0.0384923 0.10590658 0.05734854 -0.011797936
-0.0074838754 0.10327243 0.056499798 -0.06682854

attention.2.weight f4 [100, 100]
00000000: 5fec 64bc f6a9 9fbc 1b8c 77bd dd65 943d
00000010: feee 9d3d 5e8b 88bc d08c 173d e925 5a3d
00000020: 2cf6 c33d 068d c63b 5f46 44bd 442c 9cbd
00000030: dd51 bfbb ec5d 233d 1458 cb3c 0090 2abc
00000040: 2633 8f3d ece7 b13d 4328 323b b086 4b3d
00000050: a2e9 1abc 3971 e9bc 1d8f b83c 5223 96bc
00000060: 2318 acbd 893e 8ebd 2a3b 43bd 2cd2 63bd
00000070: cf88 893c 6e58 4f3d 766d 343d 804a b33c
00000080: 00dc 62bd 117a c43d b1ad 3abd 75ac ab3c
00000090: e3a7 893d bac7 ff3c f09e 1a3c c1c8 30bc
000000a0: 8608 c9bd 8756 523b 06ff dfbd d8a3 84bd
000000b0: a641 5e3c 6e42 bfbd 6595 813d 2379 5cbc
000000c0: 576a dd3d ca93 953c 0c14 a83b 69f1 373d
000000d0: d40f b5bc 3e9a 15bd 3324 703d 6b46 33ba
000000e0: 6408 80bd 80e9 10bd 3c8d f83c 5fc8 c1bd
000000f0: bb16 babd c569 a0bd 7018 34bd 948c 903c
00000100: 67db 21bc bdcf 543c 450f 083e 8eb8 babd
00000110: d31c 82bd 7226 b9bd 9224 dfbd d129 643c
00000120: 547f 88bd 035d 33bd b593 8ebd e89e d13d
00000130: 032f 293d bd59 aa3d cb27 073d 1095 43bd
00000140: 51f5 933d 84d6 0fbd 836e 173d 1f50 8c3d
00000150: dbc9 88bd 2635 cf3c 11fe 41bd 4907 213d
00000160: 2447 623d 27b2 8e3d 9afc 283c 15ad 2abd
00000170: 467f 7e3d 9dba 93bb 92e5 afbc 34d7 08b9
00000180: f3ca 90bc 77bb 94bd 84d2 8d3d 2895 853d
00000190: 1c4f 75bc 6db1 b3bd 097a debc c53f 50bd
000001a0: 74a8 7ebd bfcb a73d 1fbc bdbd 81e7 b4bd
000001b0: bdcd 2b3d 3893 92bc 06f5 bbbd 1893 4abb
000001c0: c8ca 893c dc52 a43c 19d2 a2bd abe7 efbc
000001d0: f831 ebbc a128 c2bd e0b1 d83c 6a37 53bd
000001e0: b6fb a63d 688c b73c 1a95 bebc fc85 2c3c
000001f0: 5586 c0bd de9d 203e efba 4abc 432a 0bbd
00000200: 687b 39bd fd4c b1bd 6a76 9abc 2979 22bc
00000210: e07a 893d 0a2a 8fbd f4cb 8bbd 7245 bebd
00000220: 2575 153d 965c a33d c831 98bc 5053 9b3d
00000230: 8a0d 503d 3776 40bc bdbe f93d 74e7 7fbc
00000240: 651b bd3c 1ad9 f63c a9ca 8cbc af43 aabd
00000250: 92cb efbd 3c6d 033d 4aa7 233d 2b60 823d
00000260: 54e6 1abd 713d ac3c 4b08 523d 09eb 3cbd
00000270: 0af9 2abd 2d63 99bd d1d8 fe3c 4fac 823d
00000280: 5f2c 13bd 3dd6 42bc ee64 333c 4617 8a3c
00000290: 9749 fb3c 4888 91bd effd 723b f795 6fbc
000002a0: a281 e23c 3772 92bd b356 a6bd 715c df3c
000002b0: 826f a3bd 9776 bebd 90d2 353d 0c19 a7bd
000002c0: 9219 453d d531 303d 23d9 2d3d af6f 85bc
000002d0: 1e77 d0bc 283f 06bd 335a 62bd 988c 5e3d
000002e0: c0f6 8dbd 0c30 b23d 5d1a 153d 3ea4 7bbd
000002f0: e056 0bbd 23b5 873d 1acd 4cbd 07b5 7abd
00000300: 64c3 823d 0261 63bd 3229 34bc e1de 83bd
00000310: 4d21 b23c 4254 b0bd 59da 84bc 923f b8bd
00000320: 3efa a53c 32a3 603d d5aa 40bd 7037 6bbd
00000330: fed0 bb3d b14b 3c3d e38e bfbd 580b c63d
00000340: 3e52 61bc 96c7 e1bc 6831 b9bd eba5 1abd
00000350: d0c4 d8bc dd04 be3d 4c54 7cbb 03c2 abbc
00000360: 6db3 283d 26e6 89bd ed11 23bd 298d c9bd
00000370: 52c0 7f3b 3879 af3d 9594 a9bd 3e27 033d
00000380: da31 973d 97c4 183e 9de0 163d 82d2 96bd
00000390: a662 c5bd 5da8 ad3c 1b47 a6bd 2de0 873d
000003a0: 29e2 b03d 59d2 37bd cb22 c7bd 01e7 47bd
000003b0: 8dc0 de3d e0e4 89bc 4da0 5d3d c567 ce3b
000003c0: ca86 df3b b42d 42bd 1a6f 9ebd 2b89 923d
000003d0: 63e7 8ebd 7052 98bd dbaa 613c 1b11 603d
000003e0: bd1c b5bd 0422 a23d f8e6 debc c46c d4b8
000003f0: 6566 a13c cfeb 88bd 6f1d 663d 7da5 d0bd
-0.013972371 -0.019490223 -0.06043635 0.072459914 0.077116 -0.016668018 0.036999524 0.05325881
0.09568438 0.006059292 -0.047918674 -0.076256305 -0.0058386163 0.039884493 0.024822272 -0.010410309
0.06992178 0.08686814 0.0027184642 0.049688995 -0.0094551165 -0.028496372 0.02252918 -0.018327389
-0.08403041 -0.069455214 -0.047663845 -0.055620357 0.016788868 0.050621442 0.044049703 0.02188611
-0.05538559 0.09593595 -0.0455758 0.020956257 0.06721475 0.031223167 0.009437308 -0.010790051
-0.09816079 0.0032095031 -0.10937314 -0.06476563 0.0135654565 -0.09338842 0.06327323 -0.013456616
0.10811298 0.018258948 0.005129343 0.04490796 -0.022102274 -0.03652405 0.058628272 -0.0006838801
-0.062516004 -0.035378933 0.030340783 -0.09462046 -0.09086367 -0.07832674 -0.043968618 0.017645158
-0.00987897 0.012988982 0.13287075 -0.09117232 -0.06353154 -0.09040536 -0.10895647 0.013925985
-0.06664911 -0.043789875 -0.06961767 0.10235387 0.0413046 0.083178975 0.032996934 -0.04774958
0.07224525 -0.035116687 0.036970627 0.068512194 -0.06679126 0.025293898 -0.047361437 0.03931359
0.055243626 0.069675736 0.010314131 -0.04166897 0.062133096 -0.00450833 -0.021471772 -0.0001305014
-0.017674899 -0.072623186 0.06924918 0.0652259 -0.014972474 -0.08774076 -0.0271578 -0.050842065
-0.06217237 0.08193158 -0.09264397 -0.08833218 0.041944254 -0.017892465 -0.09177594 -0.0030910429
0.016820326 0.020059042 -0.07950229 -0.029285273 -0.02871035 -0.094804056 0.026452005 -0.05156652
0.08153479 0.022405818 -0.023264457 0.010529991 -0.09400622 0.15685222 -0.01237367 -0.03397585
-0.045283705 -0.086572625 -0.018855292 -0.009916582 0.0671289 -0.0699044 -0.0682601 -0.092905894
0.03648867 0.07976644 -0.018578425 0.0758425 0.05079416 -0.011746935 0.121945836 -0.015619148
0.023084352 0.030132819 -0.01718648 -0.08313691 -0.1170875 0.032086596 0.03995446 0.06365999
-0.037817314 0.021025391 0.05127744 -0.046122584 -0.04174141 -0.074896194 0.031109245 0.063805215
-0.035930987 -0.011891899 0.0109493565 0.0168568 0.030674739 -0.07106072 0.0037077626 -0.014623157
0.027649704 -0.07150691 -0.08122005 0.02726576 -0.07980253 -0.09299963 0.04439026 -0.08159074
0.04812009 0.043016274 0.042443406 -0.016288606 -0.025447425 -0.032775074 -0.055261802 0.0543333
-0.069318295 0.087005705 0.036402095 -0.06143593 -0.034018397 0.06626346 -0.050000288 -0.061207797
0.06384924 -0.055512436 -0.01099615 -0.06438995 0.021744395 -0.08609821 -0.016217398 -0.089965
0.020260926 0.054843135 -0.047037918 -0.057425916 0.091707215 0.045970622 -0.09353425 0.096701324
-0.013752518 -0.02756099 -0.090426266 -0.037755888 -0.026461035 0.09278271 -0.0038502393 -0.020966535
0.04118674 -0.067333505 -0.039812017 -0.09841377 0.0039024544 0.085680425 -0.08280293 0.032019846
0.07382555 0.14918743 0.0368353 -0.0736437 -0.09637956 0.021198446 -0.08119031 0.06634555
0.086368866 -0.044878338 -0.09723433 -0.048804287 0.1087657 -0.016832769 0.054107953 0.0062989914
0.006821488 -0.047406867 -0.07736035 0.07155069 -0.06977727 -0.07437599 0.013773645 0.054703813
-0.08843372 0.07916644 -0.027209744 -0.00010129207 0.019702146 -0.06685602 0.056180414 -0.101878144
