catkin_ws/src/sarl/resumed_rl_model.pth (torch_old, 389084 bytes, 20 tensors)

mlp1.0.weight f4 [150, 13]
-0.012847267 0.26916313 0.20211816 0.21730413 -0.30957884 -0.3423413 0.24955639 0.3093652
-0.16631915 -0.027444206 -0.51703364 0.06339835 -0.3907553 0.22344428 -0.37255144 0.029776454
-0.26035365 -0.20433652 0.21879423 -0.10548123 -0.09066161 0.4750288 0.026936494 0.36350006
-0.0044307476 0.23963232 -0.17232957 0.24011223 -0.1835745 -0.04413082 -0.25117716 0.19123496
-0.10466589 -0.1974435 0.039169256 -0.2417266 -0.1479222 0.05706301 -0.09899725 -0.052797835
0.32961607 -0.15746802 -0.16574132 -0.3457616 -0.18878385 0.08051545 0.14622301 0.04506919
-0.03875548 -0.10947326 -0.047450818 -0.45030686 0.1689291 -0.21761626 0.09183928 -0.30499485
0.12209492 -0.08777828 -0.22464186 0.16786993 -0.5673709 0.6374102 0.09467819 0.12380102
-0.27148825 -0.05348364 -0.23295379 -0.14486782 -0.075509645 0.16896553 -0.19158772 0.06495411
0.49040294 -0.29379168 0.0192827 -0.27872097 0.1447965 0.21817215 0.029711071 -0.05026147
0.06698078 -0.103228144 -0.018607227 0.22801748 0.051625956 0.123408325 0.0279517 0.36255896
0.18770881 0.008133901 -0.23177578 -0.032986492 0.029188884 -0.25531846 -0.29658505 0.41857305
-0.09937299 0.18026336 -0.16702715 0.78526235 -0.52530426 -0.16876198 0.08832426 -0.257112
-0.055231504 0.27002972 0.25656494 0.09223323 -0.12009652 0.2168937 -0.36774182 0.08837052
-0.36092702 -0.30690458 0.10802329 0.4135562 -0.009284525 0.25029662 -0.15804106 0.034281403
-0.24650267 0.005810846 0.43832073 -0.35670686 -0.13267353 0.20326157 -0.2416447 -0.19313954
0.18476614 -0.41170827 -0.02712583 -0.19836114 -0.1987989 -0.13745838 -0.12474848 0.24470092
0.015870087 -0.11746949 -0.043948058 0.26598844 0.19891118 -0.019816644 0.16977063 0.050722286
0.12501036 0.22445038 -0.057509497 0.13333787 0.15468648 -0.56926537 -0.068155885 -0.47482258
-0.17892769 0.021663927 0.42799264 -0.272329 -0.107562706 0.10753691 0.17440927 -0.053252507
0.14803177 0.32801467 0.2537842 0.27017358 -0.123782486 -0.027556907 -0.034065943 -0.13652843
0.17826663 0.038188074 0.5804921 -0.038394168 -0.019053387 -0.38131383 -0.60282165 -0.3266914
0.17208691 0.23284137 0.18999694 -0.75997543 0.23853686 -0.6304968 0.10003116 -0.17174304
-0.065469414 -0.20844524 -0.15330522 0.14247635 -0.07350679 -0.42330074 -0.11246099 0.100324504
-0.11422695 0.18584643 0.12001036 0.11451367 -0.120645 -0.07804908 -0.032410815 0.17728052
-0.043295816 -0.15845463 0.13566649 0.3691942 -0.24907464 -0.20327172 -0.03660547 -0.08144776
0.03765264 -0.12775242 0.18460411 -0.15722676 -0.030556297 0.050942242 0.38925818 -0.36783224
-0.2427102 -0.383434 0.16442153 -0.15010326 0.3069783 -0.25812146 -0.04306603 -0.17366141
0.07217347 0.1245814 -0.10882383 0.2777208 -0.36921608 -0.27274844 -0.15553991 -0.07123364
0.08271053 0.05168034 -0.002907492 0.14711908 -0.0130158365 0.24398127 -0.52652735 0.5489944
-0.032130454 0.029656464 -0.09962292 0.12347528 -0.19420055 -0.06426385 -0.15071373 0.041034676
0.29771852 -0.20428436 -0.07951448 -0.32196262 -0.08193572 -0.49494722 -0.23360491 -0.13025069
00000000: 587d 52bc c0cf 893e 10f8 4e3e f984 5e3e
00000010: 1e81 9ebe 5c47 afbe b68b 7f3e 1e65 9e3e
00000020: 914f 2abe acd2 e0bc 515c 04bf fed6 813d
00000030: 1411 c8be 94ce 643e 10bf bebe c0ed f33c
00000040: 134d 85be 983d 51be 980b 603e 8b06 d8bd
00000050: cbac b9bd fa36 f33e eca9 dc3c ae1c ba3e
00000060: ce2f 91bb 2d62 753e 2a77 30be fbdf 753e
00000070: f4fa 3bbe 85c2 34bd 4b9a 80be 19d3 433e
00000080: 125b d6bd a12e 4abe f16f 203d 2e87 77be
00000090: eb78 17be e7ba 693d 12bf cabd 8b42 58bd
000000a0: 70c3 a83e 4c3f 21be 18b8 29be aa07 b1be
000000b0: 8e50 41be 49e5 a43d 7cbb 153e 799a 383d
000000c0: 11be 1ebd 8433 e0bd ca5b 42bd 9f8e e6be
000000d0: c0fb 2c3e ccd6 5ebe 3c16 bc3d 4928 9cbe
000000e0: e70c fa3d 19c5 b3bd 8408 66be 18e6 2b3e
000000f0: 383f 11bf 512d 233f a4e6 c13d 648b fd3d
00000100: 8200 8bbe a911 5bbd 708b 6ebe 3b58 14be
00000110: cda4 9abd 4d05 2d3e 922f 44be a906 853d
00000120: 1816 fb3e dd6b 96be c1f6 9d3c 84b4 8ebe
00000130: 8945 143e 8568 5f3e a264 f33c f9de 4dbd
00000140: 382d 893d 4769 d3bd 2f6e 98bc 6a7d 693e
00000150: bd75 533d 81bd fc3d f7fa e43c 54a1 b93e
00000160: bd36 403e 0e44 053c a156 6dbe d81c 07bd
00000170: 871d ef3c 1ab9 82be ffd9 97be 354f d63e
00000180: 1184 cbbd f596 383e 2a09 2bbe f406 493f
00000190: 577a 06bf f1cf 2cbe 5ae3 b43d 2fa4 83be
000001a0: 6e3a 62bd 5641 8a3e 7b5c 833e c7e4 bc3d
000001b0: 2af5 f5bd 6219 5e3e a848 bcbe 9afb b43d
000001c0: 6dcb b8be 9922 9dbe 513b dd3d a3bd d33e
000001d0: 1f1e 18bc e126 803e 84d5 21be a86a 0c3d
000001e0: 326b 7cbe e968 be3b 936b e03e 48a2 b6be
000001f0: 92db 07be cd23 503e b571 77be 5fc6 45be
00000200: 5633 3d3e 6dcb d2be fd36 debc 2f1f 4bbe
00000210: f091 4bbe e4c1 0cbe 227c ffbd e192 7a3e
00000220: fc01 823c d893 f0bd e102 34bd a32f 883e
00000230: 5faf 4b3e 8456 a2bc 5ad8 2d3e 2cc2 4f3d
00000240: b702 003e 52d6 653e 148f 6bbd b989 083e
00000250: 2266 1e3e 60bb 11bf 5095 8bbd f21b f3be
00000260: d238 37be 8c78 b13c da21 db3e b56e 8bbe
00000270: d649 dcbd 503c dc3d 5898 323e 4d1f 5abd
00000280: a495 173e 8af1 a73e 01f0 813e 3154 8a3e
00000290: ac81 fdbd 06bf e1bc bb88 0bbd 1cce 0bbe
000002a0: 878b 363e 196b 1c3d 219b 143f 3443 1dbd
000002b0: d915 9cbc 913b c3be 8552 1abf 1844 a7be
000002c0: 8d37 303e f86d 6e3e 8f8e 423e c08d 42bf
000002d0: 0243 743e 3d68 21bf 23dd cc3d 68dd 2fbe
000002e0: d414 86bd ab72 55be 0bfc 1cbe 52e5 113e
000002f0: ba8a 96bd e0ba d8be f351 e6bd ef76 cd3d
00000300: d2ef e9bd 874e 3e3e fec7 f53d 2586 ea3d
00000310: ba14 f7bd 32d8 9fbd 34c1 04bd 0689 353e
00000320: f456 31bd ee41 22be 28ec 0a3e 0607 bd3e
00000330: 6c0d 7fbe 7626 50be 9eef 15bd 15ce a6bd
00000340: a839 1a3d 88d1 02be dc08 3d3e 0d00 21be
00000350: 3351 fabc d0a8 503d d94c c73e 8254 bcbe
00000360: 0689 78be 7651 c4be 1e5e 283e abb4 19be
00000370: 422c 9d3e 7f28 84be 0166 30bd 4cd4 31be
00000380: afcf 933d 8824 ff3d 07df debd 6c31 8e3e
00000390: e409 bdbe afa5 8bbe db45 1fbe f1e2 91bd
000003a0: 2364 a93d c4ae 533d 9f8b 3ebb 62a6 163e
000003b0: 6040 55bc 3ad6 793e 7fca 06bf e68a 0c3f
000003c0: 399b 03bd 1df2 f23c 1a07 ccbd 9ce0 fc3d
000003d0: 82dc 46be c49c 83bd b354 1abe fa13 283d
000003e0: 906e 983e eb2f 51be 7dd8 a2bd 49d8 a4be
000003f0: eacd a7bd b969 fdbe 2036 6fbe 7060 05be

mlp1.0.bias f4 [150]
0.12167075 -0.34395936 -0.27502078 0.22537825 0.050432887 0.18566427 0.045461226 -0.1801608
0.1160657 -0.2485785 0.09667764 -0.31046513 0.26362592 0.13912751 -0.026310151 0.047069736
-0.11155089 0.14851971 0.37751412 0.437209 0.09066343 0.22872385 0.18576497 0.5258476
-0.08665173 0.019079449 -0.03482276 -0.040248025 -0.12821506 -0.1406437 -0.20346844 0.190159
-0.29001585 -0.021295948 0.16157025 -0.09749132 0.14908686 0.008736928 -0.2614243 -0.23078881
0.30980858 0.36581913 0.24099725 -0.02201541 -0.24256925 -0.08282465 -0.06845965 -0.034889027
-0.1914851 -0.2064821 -0.20385538 -0.0010420781 -0.2624735 0.20251648 0.044715926 0.063805364
0.31214297 0.112511195 -0.16277303 -0.18677129 -0.02099629 -0.13428251 0.15571457 -0.27218732
-0.084376484 -0.18370537 0.2599516 0.027558006 0.021447197 -0.3275896 -0.016595008 0.33800322
0.06064449 -0.21723156 -0.106168225 -0.16041525 0.084327 -0.13022727 0.04939318 -0.2391538
0.40589628 0.0519345 -0.14233214 0.10496846 0.2275021 0.25777385 -0.22817823 0.1837536
0.29377034 -0.22720027 0.34123772 -0.2259256 -0.013983808 -0.20055588 -0.12941076 -0.22255984
0.24902424 -0.24942721 -0.001697897 -0.1708816 0.10155991 -0.13016804 -0.21769847 -0.07232009
0.060060654 0.10701631 0.059267845 -0.15447856 -0.02066098 -0.03991417 -0.24843346 0.26479092
-0.016430195 0.11906726 0.16527826 -0.09148223 0.21353799 -0.05435616 -0.07943841 -0.09044879
-0.13790789 -0.20165029 -0.18484576 -0.2749591 -0.053255998 0.040030934 -0.16487744 0.10531937
0.31061453 -0.14327042 0.29880854 0.09496866 -0.07908601 -0.49733093 -0.09188224 0.21874548
0.06335514 -0.2352229 -0.31612754 0.14522982 0.14447644 -0.0026698725 0.23555465 -0.04139771
-0.20554149 -0.23677582 -0.2421525 0.28772926 -0.387853 0.315785
00000000: 842e f93d 711b b0be 86cf 8cbe 8ec9 663e
00000010: b792 4e3d c61e 3e3e 8d35 3a3d 137c 38be
00000020: dbb3 ed3d 5d8b 7ebe edfe c53d 49f5 9ebe
00000030: faf9 863e 7177 0e3e 6388 d7bc 32cc 403d
00000040: cb74 e4bd 8d15 183e 8849 c13e dcd9 df3e
00000050: c0ad b93d 9636 6a3e 2c39 3e3e f39d 063f
00000060: 7676 b1bd 814c 9c3c 4fa2 0ebd 1ddb 24bd
00000070: cf4a 03be e704 10be 085a 50be 0ab9 423e
00000080: f57c 94be d774 aebc ac72 253e 87a9 c7bd
00000090: 3aaa 183e 5525 0f3c 68d9 85be e753 6cbe
000000a0: 3b9f 9e3e a54c bb3e fcc7 763e a959 b4bc
000000b0: 1364 78be f89f a9bd 9334 8cbd cce7 0ebd
000000c0: ac14 44be 0b70 53be 77bf 50be 5796 88ba
000000d0: ed62 86be 7b60 4f3e 0c28 373d 63ac 823d
000000e0: 34d1 9f3e 456c e63d f9ad 26be f940 3fbe
000000f0: 6900 acbc 5b81 09be a473 1f3e 235c 8bbe
00000100: 94cd acbd 431d 3cbe 6018 853e 54c1 e13c
00000110: 08b2 af3c d3b9 a7be 41f2 87bc c20e ad3e
00000120: 5b66 783d f371 5ebe ba6e d9bd e543 24be
00000130: a2b3 ac3d 4c5a 05be 8150 4a3d bce4 74be
00000140: a3d1 cf3e 45b9 543d 84bf 11be b4f9 d63d
00000150: 4ff6 683e effa 833e 8ea7 69be e729 3c3e
00000160: 1169 963e 30a7 68be b6b6 ae3e 0a59 67be
00000170: 581c 65bc 855e 4dbe 4184 04be bae6 63be
00000180: 3600 7f3e d969 7fbe f88b deba 96fb 2ebe
00000190: a4fe cf3d c54a 05be 59ec 5ebe 8e1c 94bd
000001a0: 2902 763d 5e2b db3d d7c2 723d a12f 1ebe
000001b0: 3741 a9bc 0a7d 23bd 5765 7ebe ad92 873e
000001c0: 9e98 86bc 89d9 f33d b43e 293e 095b bbbd
000001d0: b4a9 5a3e 91a4 5ebd 9bb0 a2bd 373d b9bd
000001e0: ba37 0dbe 6a7d 4ebe 3548 3dbe 70c7 8cbe
000001f0: f622 5abd 7af7 233d a2d5 28be afb1 d73d
00000200: de08 9f3e 7bb5 12be 6ffd 983e ee7e c23d
00000210: d9f7 a1bd 29a2 febe c12c bcbd d1fe 5f3e
00000220: 57c0 813d 46de 70be 78db a1be 20b7 143e
00000230: a2f1 133e 07f9 2ebb 3d35 713e a590 29bd
00000240: 7879 52be 5c75 72be d3f6 77be 4051 933e
00000250: ab94 c6be 92ae a13e

mlp1.2.weight f4 [100, 150]
-0.054671805 0.049665708 -0.010394008 0.008646775 -0.08858368 0.010156124 -0.06309315 0.03659841
-0.07178845 0.0040056584 -0.063797966 -0.019156056 0.02680335 -0.02183338 -0.023997726 -0.09643691
0.13400902 0.030680474 -0.0513221 -0.0162473 0.050744016 0.0051571475 0.08755306 -0.02180161
-0.0074209548 0.07181995 0.015173867 0.10042121 -0.0151065495 0.025944525 -0.0029157214 -0.059590425
0.011902397 0.073268406 -0.012302948 0.048597813 -0.054420665 -0.051186744 0.026062805 0.011938569
-0.07411224 -0.07685329 0.043148495 -0.0023094215 -0.057213936 0.042928435 0.09163924 -0.017463267
0.026420666 -0.042234994 -0.003561396 -0.0026454772 0.07674455 0.07288616 0.0027879 0.06395894
-0.022201989 0.0795517 0.05469693 -0.031592097 0.004963144 -0.0022720625 0.07188263 -0.031048596
-0.009652253 -0.0745326 0.05954153 0.027321383 -0.060289897 -0.0070993835 -0.056625932 0.056390237
-0.087663524 0.05500434 -0.002284923 -0.036742717 0.04335276 0.04081533 -0.08590763 0.08110895
-0.10170638 0.002127263 0.03571279 -0.035883266 0.12791 0.029383767 -0.026075833 0.07681567
-0.03429014 -0.003939298 0.04110401 -0.057566803 0.040139206 0.0055618673 0.07994776 -0.06982817
0.08878846 -0.045950077 -0.043297593 0.023425218 -0.016993094 -0.10457576 -0.10144887 0.08372785
-0.06708355 0.014907216 0.039793283 0.02556193 -0.043574642 -0.025120677 -0.03601253 0.050609987
0.025988746 -0.031119425 0.02766152 -0.0115424115 0.10237664 0.04132845 0.0845073 -0.038202163
-0.007013735 -0.051826883 0.041210026 0.038921054 -0.09226801 0.029409265 -0.06648258 0.038091965
0.011960312 -0.01583492 -0.053782202 0.06250189 -0.006324922 0.02700355 0.0009467851 0.04260848
-0.0043676794 -0.082722425 -0.041854214 0.07817111 -0.032040346 -0.06515883 -0.093948685 0.0018059505
-0.042426784 0.07754429 0.020206282 -0.009005355 0.02969085 0.04310978 0.053546883 -0.13266712
0.06988008 0.0068580345 0.041288637 0.008148388 0.013191916 -0.07296472 -0.047875192 -0.08589798
-0.06872352 -0.14656715 -0.0670585 0.11618276 -0.02692186 0.056635227 -0.03529169 -0.059217524
0.0016773191 0.036611885 -0.07823461 0.008701194 -0.08433942 0.14847855 0.011419116 0.051546995
-0.0693376 0.00424327 0.042840846 -0.12173444 0.038546305 -0.033708993 -0.06431791 0.017110048
0.088872425 -0.018682262 0.049510214 -0.075092435 -0.017443335 0.06962764 -0.012190577 0.023596372
0.029736893 -0.06602518 -0.0048957174 0.03211998 0.035090953 0.030605674 0.04866783 -0.08427852
0.061499655 -0.041520167 -0.025737172 -0.035105146 -0.014739751 0.053905774 -0.08027774 0.0123439
0.070002064 0.0061676884 0.05090227 0.019150242 0.0011182817 0.051845837 -0.108120486 0.022705786
0.02332254 0.039223123 0.034795314 -0.1441064 0.09217804 0.010916147 -0.055805724 -0.03743904
0.026736801 -0.04884606 -0.07995746 0.017883964 0.04284889 -0.08197851 0.08345991 0.039101522
0.11685305 0.030678567 0.09889098 -0.0776263 -0.018955464 0.1083652 -0.043219633 0.052840564
0.12009673 -0.016738893 -0.10293234 -0.01963245 -0.08781715 -0.05768545 0.013879211 0.02012859
0.037243105 0.018199097 -0.019500745 -0.062936716 -0.14051996 0.060112633 -0.00057204685 -0.011748218
00000000: 8bef 5fbd 456e 4b3d a14b 2abc 34ab 0d3c
00000010: 5c6b b5bd df65 263c fb36 81bd 37e8 153d
00000020: d305 93bd e641 833b 82a8 82bd 29ed 9cbc
00000030: b392 db3c ebdb b2bc e196 c4bc b780 c5bd
00000040: a939 093e 9e55 fb3c 1f37 52bd 0f19 85bc
00000050: f5d8 4f3d 4afd a83b 054f b33d 4a99 b2bc
00000060: 7b2b f3bb 5716 933d d09b 783c a3a9 cd3d
00000070: 7681 77bc 9d89 d43c b015 3fbb 1715 74bd
00000080: 4502 433c bf0d 963d 4e92 49bc 800e 473d
00000090: 34e8 5ebd 31a9 51bd aa81 d53c fd99 433c
000000a0: 28c8 97bd 4265 9dbd 7abc 303d aa59 17bb
000000b0: 2959 6abd bad5 2f3d 5bad bb3d 200f 8fbc
000000c0: 2770 d83c 9afe 2cbd 4f66 69bb be5f 2dbb
000000d0: 3f2c 9d3d 5745 953d 33b5 363b e8fc 823d
000000e0: f2e0 b5bc 00ec a23d e309 603d b766 01bd
000000f0: dfa1 a23b e2e6 14bb 3337 933d a059 febc
00000100: 7c24 1ebc 8ca4 98bd d2e1 733d 18d1 df3c
00000110: 8af2 76bd f2a1 e8bb 98f0 67bd 73f9 663d
00000120: ef88 b3bd 3b4c 613d a6be 15bb 887f 16bd
00000130: aa92 313d fa2d 273d 57f0 afbd 731c a63d
00000140: 6f4b d0bd 8d69 0b3b 9347 123d 55fa 12bd
00000150: d7fa 023e 3ab6 f03c fc9c d5bc 8951 9d3d
00000160: d173 0cbd 3a15 81bb ae5c 283d 2bcb 6bbd
00000170: 0269 243d 5340 b63b a7bb a33d 1202 8fbd
00000180: b9d6 b53d 2636 3cbd d158 31bd 3ee6 bf3c
00000190: 1a35 8bbc d12b d6bd 6dc4 cfbd 8279 ab3d
000001a0: 1a63 89bd 653d 743c 48fe 223d 4167 d13c
000001b0: 537b 32bd e1c9 cdbc e081 13bd 6b4c 4f3d
000001c0: 5ae6 d43c 2aee febc 699a e23c 621c 3dbc
000001d0: d8aa d13d 0548 293d 2a12 ad3d df79 1cbd
000001e0: 79d3 e5bb 6d48 54bd d8cb 283d af6b 1f3d
000001f0: 03f7 bcbd b3eb f03c 0528 88bd 5206 1c3d
00000200: 2ff5 433c 3cb8 81bc ba4a 5cbd fe00 803d
00000210: 4b41 cfbb 8d36 dd3c ac31 783a 3b86 2e3d
00000220: c01e 8fbb 606a a9bd 536f 2bbd 2d18 a03d
00000230: bd3c 03bd fe71 85bd 2b68 c0bd a5b5 ec3a
00000240: b5c7 2dbd 8acf 9e3d a587 a53c 328b 13bc
00000250: 3a3a f33c e193 303d fa53 5b3d e4d9 07be
00000260: 4a1d 8f3d 5db9 e03b 461e 293d d180 053c
00000270: e822 583c 876e 95bd c718 44bd 48eb afbd
00000280: ebbe 8cbd b315 16be f855 89bd 3af1 ed3d
00000290: 3c8b dcbc 57fa 673d 058e 10bd 138e 72bd
000002a0: 7dd9 db3a 58f6 153d 7839 a0bd 748f 0e3c
000002b0: 25ba acbd c30a 183e 3e17 3b3c f122 533d
000002c0: df00 8ebd 210b 8b3b e279 2f3d e84f f9bd
000002d0: bbe2 1d3d 7112 0abd 1cb9 83bd 5f2a 8c3c
000002e0: bf02 b63d 8b0b 99bc 39cb 4a3d 10ca 99bd
000002f0: 53e5 8ebc f098 8e3d fcba 47bc 2e4d c13c
00000300: c99a f33c 3638 87bd 416c a0bb 3d90 033d
00000310: 88bb 0f3d c0b8 fa3c eb57 473d 379a acbd
00000320: 10e7 7b3d 0d11 2abd c3d6 d2bc 6aca 0fbd
00000330: ff7e 71bc 4dcc 5c3d a868 a4bd 123e 4a3c
00000340: 3e5d 8f3d 521a ca3b e67e 503d f8e0 9c3c
00000350: 4f93 923a 4d5c 543d 466e ddbd 7c01 ba3c
00000360: e90e bf3c 6da8 203d 8885 0e3d a190 13be
00000370: d7c7 bc3d a4d9 323c 8b94 64bd ae59 19bd
00000380: 2307 db3c ce12 48bd bdc0 a3bd 6481 923c
00000390: 5182 2f3d 59e4 a7bd 07ed aa3d eb28 203d
000003a0: a750 ef3d 9e51 fb3c 5b87 ca3d 8afa 9ebd
000003b0: 7d48 9bbc 93ee dd3d 1207 31bd 596f 583d
000003c0: 46f5 f53d 0120 89bc 31ce d2bd 3bd4 a0bc
000003d0: 7ad9 b3bd 9447 6cbd a165 633c b6e4 a43c
000003e0: 3a8c 183d 4616 953c 07c0 9fbc f7e4 80bd
000003f0: 77e4 0fbe aa38 763d 6af5 15ba 997b 40bc

mlp1.2.bias f4 [100]
-0.0037352827 0.03628257 -0.012339103 -0.0067703584 0.28855303 -0.0133173205 0.07753287 -0.096165106
-0.029628536 0.015585958 0.035235833 -0.074782945 0.04267503 0.045493975 0.12534992 -0.007724296
-0.045949753 0.1239597 0.030953716 -0.03294899 -0.036214467 0.019500311 0.014256984 0.09481134
-0.03309755 0.116922036 0.0858279 -0.13436173 -0.01028276 -0.051346254 -0.041778978 -0.04007335
0.017798599 -0.1295533 -0.0692144 -0.06228615 -0.1633094 -0.0333488 -0.06330923 -0.17241564
-0.0692981 0.042271484 -0.09633102 -0.04982008 0.04166103 0.08073928 -0.02653183 -0.008991589
-0.056613006 -0.03711389 0.07862156 0.10879175 -0.048558574 -0.08765351 -0.18751392 -0.121979125
0.15238969 0.033120893 -0.12710313 -0.03848275 0.1472362 -0.10578739 0.060408097 0.10085921
-0.1045175 0.029939232 -0.13463151 0.07162454 -0.054800123 0.19296508 -0.007826947 -0.09174538
-0.02249199 0.06590307 -0.029579801 0.05258909 -0.028457003 -0.100409515 -0.022859244 0.047251105
-0.019178241 0.12627703 0.063867435 0.022135723 0.016881404 -0.07493944 -0.094818 -0.044041086
-0.12293746 0.055042088 -0.081202455 0.079196095 0.11095123 0.1349732 -0.06317577 -0.20333777
-0.040571425 -0.11374271 0.006642406 0.07530807
00000000: a5cb 74bb 089d 143d f329 4abc e2d9 ddbb
00000010: 39bd 933e e430 5abc 8ec9 9e3d 36f2 c4bd
00000020: 8bb7 f2bc 3f5c 7f3c 7353 103d cd27 99bd
00000030: 03cc 2e3d e457 3a3d bb5b 003e 171c fdbb
00000040: cf35 3cbd 95de fd3d a692 fd3c 85f5 06bd
00000050: 9f55 14bd 1ebf 9f3c 2096 693c 732c c23d
00000060: 4c91 07bd d274 ef3d 8ac6 af3d 1f96 09be
00000070: 0579 28bc 7350 52bd 6f20 2bbd f423 24bd
00000080: 5ece 913c 9fa9 04be 48c0 8dbd c31f 7fbd
00000090: 943a 27be c098 08bd 45a8 81bd ba8d 30be
000000a0: 2aec 8dbd dd24 2d3d 3349 c5bd 2410 4cbd
000000b0: c2a4 2a3d a35a a53d 4859 d9bc 7551 13bc
000000c0: 0ae3 67bd bc04 18bd 5704 a13d 36ce de3d
000000d0: 5be5 46bd af83 b3bd a603 40be 31d0 f9bd
000000e0: 0b0c 1c3e c6a9 073d 5327 02be 17a0 1dbd
000000f0: 16c5 163e 0fa7 d8bd 7b6e 773d 468f ce3d
00000100: 450d d6bd 1f43 f53c d8dc 09be e3af 923d
00000110: 1876 60bd a398 453e 983c 00bc 00e5 bbbd
00000120: 1f41 b8bc 30f8 863d 5751 f2bc a867 573d
00000130: a91e e9bc 81a3 cdbd 4f43 bbbc 608a 413d
00000140: b01b 9dbc c44e 013e eecc 823d fa55 b53c
00000150: df4a 8a3c d979 99bd f12f c2bd 6d64 34bd
00000160: a3c6 fbbd d073 613d 794d a6bd 9031 a23d
00000170: 663a e33d 6a36 0a3e 4c62 81bd c737 50be
00000180: 392e 26bd f0f1 e8bd 8aa8 d93b 1e3b 9a3d

mlp2.0.weight f4 [100, 100]
-0.01569571 0.0508974 -0.026298687 0.10426306 -0.076342545 0.030877518 0.09474893 -0.11414887
0.06750371 0.002915267 0.03717217 0.07936283 0.016060704 8.5833155e-05 0.05434597 -0.078565516
-0.0121774515 0.025161982 0.07672757 -0.00889764 0.024077505 -0.04093462 0.007125096 0.08744564
0.040326055 -0.06940133 -0.020257704 -0.10309903 0.08253689 -0.09352595 -0.031025918 0.008984682
-0.03469602 -0.01676226 -0.032767996 -0.088505164 0.09585311 0.09457 -0.018994857 0.008273142
0.0709972 0.046109673 0.09475375 -0.031766824 0.08135744 -0.07056172 0.021503402 0.099073485
-0.06615553 0.055095136 0.033063125 0.09959523 -0.06400965 0.081949666 0.043114915 -0.11136562
0.027514577 -0.06326519 -0.0031078812 -0.01073687 0.0058326595 0.06915496 0.0971045 -0.04453398
0.08017812 -0.081722565 -0.052284516 -0.07111334 -0.0063547343 -0.09052876 0.02335701 0.0836986
-0.1065894 0.0630025 0.027631178 -0.064508885 0.0034174665 0.06497352 -0.042332143 -0.05812493
0.09376052 -0.09463915 -0.071905084 0.050755505 -0.08203048 0.0819564 -0.03332638 -0.08644133
0.06443934 0.09477588 0.051342607 0.08449153 -0.13096225 -0.021251345 0.082279734 -0.030225009
0.015789315 -0.10740187 -0.03578866 0.045082677 -0.03635347 -0.10495108 0.10505234 -0.026209459
0.079343006 -0.11042337 0.07888638 -0.055769 -0.024037238 0.016409751 -0.009363393 0.01865988
0.04416668 -0.015199031 -0.004588699 -0.0060230726 0.09224539 0.07498743 0.012339161 0.08879846
0.0072641885 0.0062550493 0.0014133134 0.047272533 0.006339006 -0.09224513 -0.05864887 -0.008132195
0.09037423 -0.008180884 0.07695172 0.068441175 -0.075129986 0.08549203 0.053361382 -0.067787446
0.020553363 0.08229104 -0.10046242 0.06466284 -0.04637339 0.021058094 -0.083320245 0.011383019
-0.028050272 0.036876444 -0.043883003 0.070175864 -0.14245555 0.017109388 0.079357184 -0.032945003
0.074882306 0.07578529 -0.04085851 0.032444447 -0.014973803 0.04996388 -0.065068476 -0.073207565
0.054783653 -0.014678434 -0.07935253 0.07690781 0.06141541 0.058923904 -0.029356152 -0.01199294
0.03017351 0.1019437 0.1013717 -0.056172114 0.006990698 0.075392924 -0.062389545 0.09843647
0.018368123 -0.10801383 0.08181995 0.105801664 -0.09072415 0.038065206 -0.017465422 0.037054814
0.031416208 0.0062952125 -0.0051764464 -0.025395326 -0.08068163 -0.07185811 0.003259261 0.0046575544
0.06786134 0.0020417063 -0.08250924 0.030872973 0.10766222 -0.02951073 0.10802982 -0.091420084
0.018234525 0.0139544085 -0.079712145 -0.104566514 -0.09676099 0.08661067 -0.06853269 -0.033549447
-0.008992176 -0.0030340378 0.088557154 -0.011792521 -0.110510916 -0.0632954 0.031224212 0.12987956
-0.069166675 0.064276725 0.0698676 0.0103078 -0.03939151 -0.0013331249 -0.08922236 -0.0927032
-0.005176581 -0.08831296 0.04271289 0.059401836 0.018256053 -0.0016137067 -0.054399393 0.06027029
0.037970014 -0.081637755 -0.08450158 -0.04667019 0.04968603 0.017641248 -0.03359099 0.08654571
-0.06503938 -0.010839411 0.06156204 -0.02646309 0.024717668 0.07183395 -0.01834333 0.110099435
0.053563707 0.07725377 0.024239779 0.06825159 -0.058081724 -0.02812411 -0.0017030763 0.08419334
00000000: 4a94 80bc cb79 503d 5870 d7bc df87 d53d
00000010: 7b59 9cbd d9f2 fc3c ba0b c23d e2c6 e9bd
00000020: 633f 8a3d 100e 3f3b d841 183d fb88 a23d
00000030: bd91 833c 5301 b438 e199 5e3d f5e6 a0bd
00000040: ef83 47bc 8020 ce3c 5823 9d3d 68c7 11bc
00000050: 303e c53c 0fab 27bd a379 e93b b316 b33d
00000060: ef2c 253d 4922 8ebd 7cf3 a5bc 9625 d3bd
00000070: 1a09 a93d 898a bfbd 112a febc 7d34 133c
00000080: 6a1d 0ebd 0251 89bc bc37 06bd 3242 b5bd
00000090: a34e c43d ebad c13d 1a9b 9bbc 138c 073c
000000a0: fb66 913d 7fdd 3c3d 410e c23d ee1d 02bd
000000b0: bb9e a63d aa82 90bd e727 b03c 0ae7 ca3d
000000c0: 8d7c 87bd 70ab 613d 336d 073d 95f8 cb3d
000000d0: 7e17 83bd 3ad5 a73d 4499 303d a813 e4bd
000000e0: 4066 e13c 2e91 81bd 98ad 4bbb b2e9 2fbc
000000f0: e51f bf3b 1ea1 8d3d b9de c63d 4369 36bd
00000100: 6d34 a43d 295e a7bd 4a28 56bd dfa3 91bd
00000110: 603b d0bb 2467 b9bd 3357 bf3c 2c6a ab3d
00000120: 8b4b dabd 7407 813d c85a e23c 3c1d 84bd
00000130: 93f7 5f3b d610 853d 7864 2dbd 6814 6ebd
00000140: 8405 c03d 2cd2 c1bd f942 93bd 01e5 4f3d
00000150: 99ff a7bd c2d8 a73d 3e81 08bd 2708 b1bd
00000160: c6f8 833d db19 c23d a04c 523d e509 ad3d
00000170: f81a 06be 4d17 aebc 4782 a83d 709a f7bc
00000180: 9858 813c 83f5 dbbd 2197 12bd 9da8 383d
00000190: 60e7 14bd 98f0 d6bd ae25 d73d 38b5 d6bc
000001a0: 967e a23d a625 e2bd 2f8f a13d 096e 64bd
000001b0: bee9 c4bc be6d 863c eb68 19bc 9bdc 983c
000001c0: 1fe8 343d 5b05 79bc cc5c 96bb 325d c5bb
000001d0: 27eb bc3d 0293 993d 312a 4a3c f8db b53d
000001e0: 6e08 ee3b 28f7 cc3b ee3e b93a d8a0 413d
000001f0: 70b7 cf3b 04eb bcbd cc39 70bd e63c 05bc
00000200: 2016 b93d 1d09 06bc dd98 9d3d e32a 8c3d
00000210: c0dd 99bd 7216 af3d 7791 5a3d 25d4 8abd
00000220: 875f a83c 3488 a83d 3ebf cdbd f36d 843d
00000230: 06f2 3dbd 0682 ac3c cea3 aabd d87f 3a3c
00000240: afc9 e5bc c10b 173d aabe 33bd 5db8 8f3d
00000250: dedf 11be fd28 8c3c 0586 a23d 57f1 06bd
00000260: e55b 993d 5135 9b3d 415b 27bd 78e4 043d
00000270: af54 75bc eda6 4c3d 9f42 85bd d9ed 95bd
00000280: d364 603d d07d 70bc 9483 a2bd d881 9d3d
00000290: ba8e 7b3d 315a 713d 507c f0bc 097e 44bc
000002a0: 702e f73c dcc7 d03d f79b cf3d bb14 66bd
000002b0: 3a12 e53b 9b67 9a3d 2e8c 7fbd 0f99 c93d
000002c0: bf78 963c 5b36 ddbd 3891 a73d 8bae d83d
000002d0: 95cd b9bd 43ea 1b3d a513 8fbc cac6 173d
000002e0: 48ae 003d 1248 ce3b 2e9f a9bb dc09 d0bc
000002f0: 693c a5bd 582a 93bd 5399 553b 669e 983b
00000300: e3fa 8a3d 26ce 053b 9bfa a8bd 51e9 fc3c
00000310: 037e dc3d 7dc0 f1bc bd3e dd3d 743a bbbd
00000320: 9260 953c 08a1 643c 1f40 a3bd f826 d6bd
00000330: a02a c6bd ef60 b13d de5a 8cbd 256b 09bd
00000340: eb53 13bc b5d6 46bb 745d b53d 6b35 41bc
00000350: 8c53 e2bd 05a1 81bd ebc9 ff3c 26ff 043e
00000360: 42a7 8dbd 84a3 833d bf16 8f3d 0ce2 283c
00000370: fe58 21bd 40bc aeba 36ba b6bd 2ddb bdbd
00000380: 4fa0 a9bb 6ddd b4bd b6f3 2e3d 574f 733d
00000390: b88d 953c 0383 d3ba e6d1 5ebd fbdd 763d
000003a0: 7286 1b3d b231 a7bd 2a0f adbd 3e29 3fbd
000003b0: 9483 4b3d 6184 903c b596 09bd e13e b13d
000003c0: 5e33 85bd c997 31bc 7a28 7c3d 1fc9 d8bc
000003d0: b57c ca3c ae1d 933d c044 96bc d07b e13d
000003e0: 9e65 5b3d 3937 9e3d 8092 c63c 7dc7 8b3d
000003f0: 1ae7 6dbd 8964 e6bc c239 dfba 8f6d ac3d

mlp2.0.bias f4 [100]
0.021582723 0.06482402 -0.06002227 -0.046844687 -0.043295015 -0.0012811817 0.12884527 -0.01603868
0.122935764 0.051674318 -0.024369687 0.077459924 0.060135543 -0.028495327 0.11508379 0.13785398
0.07253105 0.041192356 -0.11308132 -0.08317298 -0.038305286 -0.04494241 0.13314597 0.011237591
0.1002768 0.10827385 0.10191638 0.050102398 -0.054909557 0.07042245 0.15269731 -0.013748722
-0.16789742 0.09697593 0.14820537 0.10825234 -0.052106623 0.19092242 0.032862104 0.25657746
-0.00701237 -0.17350438 -0.059810154 -0.074890755 0.08690923 0.022988683 -0.10219891 0.06532655
0.046949405 0.0090566715 0.013654266 0.14173698 0.03050329 -0.06253194 0.09306969 -0.09198515
-0.025255349 -0.100540824 -0.07723818 0.07922707 -0.10624192 0.105189614 0.08931643 -0.07631739
-0.042738218 0.04515288 -0.0037282286 -0.05119826 -0.05160685 -0.012283485 0.08356787 0.12075478
0.025686909 -0.058589883 -0.019004455 0.076589815 -0.10632254 0.022944061 -0.08343837 0.08509676
0.09186603 0.08581387 0.086754166 -0.086784914 -0.061674688 -0.085712925 0.13447742 -0.07200865
-0.040659685 -0.052914437 0.111955866 -0.06585454 -0.0077198464 -0.07355723 -0.0652456 -0.04707654
-0.10727743 -0.06823707 -0.06480678 -0.14715107
00000000: 40ce b03c 75c2 843d e9d9 75bd 37e0 3fbd
00000010: 1d56 31bd 53ed a7ba 04f0 033e 8d63 83bc
00000020: bfc5 fb3d 73a8 533d f0a2 c7bc 4fa3 9e3d
00000030: b050 763d 086f e9bc 0db1 eb3d 9829 0d3e
00000040: 298b 943d 51b9 283d 2e97 e7bd 9856 aabd
00000050: 01e6 1cbd 8815 38bd 6b57 083e df1d 383c
00000060: ec5d cd3d aebe dd3d 89b9 d03d 2c38 4d3d
00000070: d8e8 60bd a539 903d af5c 1c3e 5242 61bc
00000080: 4ded 2bbe 519b c63d 26c3 173e 67b3 dd3d
00000090: c16d 55bd 2b81 433e 6a9a 063d 1f5e 833e
000000a0: 06c8 e5bb 22ab 31be 7efb 74bd 5360 99bd
000000b0: 77fd b13d c352 bc3c aa4d d1bd edc9 853d
000000c0: 054e 403d 6f62 143c 24b6 5f3c 8023 113e
000000d0: 09e2 f93c bf10 80bd 529b be3d b662 bcbd
000000e0: 4ee4 cebc 59e8 cdbd 0d2f 9ebd cd41 a23d
000000f0: 5d95 d9bd a76d d73d 88eb b63d 4b4c 9cbd
00000100: 450e 2fbd 3af2 383d 4c55 74bb 44b5 51bd
00000110: b461 53bd ac40 49bc a225 ab3d 484e f73d
00000120: 5a6d d23c f2fb 6fbd 3baf 9bbc 1fdb 9c3d
00000130: a2bf d9bd 2ff5 bb3c bce1 aabd 3647 ae3d
00000140: 4224 bc3d 2fbf af3d 2bac b13d 4abc b1bd
00000150: 999e 7cbd 428a afbd 73b4 093e 4579 93bd
00000160: c58a 26bd cfbc 58bd 1e49 e53d bfde 86bd
00000170: c4f6 fcbb 2ca5 96bd 7c9f 85bd 54d3 40bd
00000180: 45b4 dbbd e1bf 8bbd 6bb9 84bd c5ae 16be

mlp2.2.weight f4 [50, 100]
0.07867086 -0.09014571 0.046468724 -0.06284872 0.0052939835 -0.000406062 -0.112347595 0.14626661
-0.09299526 0.0017140858 -0.04343096 0.07695649 0.109573446 0.08533642 -0.13107285 -0.014855597
0.025296498 0.077673346 0.009242426 0.04122821 0.046293795 -0.12339175 -0.006407468 -0.06773535
-0.004639043 -0.045595057 -0.02282161 0.034172572 -0.016298987 -0.07724272 0.22284192 -0.0476115
0.005550245 -0.116016306 -0.11328018 0.08527171 0.06249883 -0.12668635 0.03327587 0.15687396
-0.016348086 -0.09311242 -0.10288761 -0.03596161 0.04603007 0.035488416 -0.03569388 0.020261588
-0.007935422 0.13339981 0.119613476 -0.021964837 -0.033161942 -0.0671334 0.11749675 0.04954344
0.0715511 0.012943903 0.01537573 0.09218513 0.00918819 0.100775175 -0.009411824 -0.02384527
-0.002108521 0.05897484 -0.026907047 0.054968953 0.10218187 0.061355047 -0.04415412 0.06386736
-0.12839852 -0.018259363 -0.14606307 0.07498738 -0.03174175 -0.0836409 -0.1462901 -0.121325366
-0.0707838 0.061905053 0.12176093 -0.011472043 0.090603404 0.07747851 0.06739628 -0.063710935
-0.01756572 -0.015618807 -0.034615636 0.065321565 0.12507299 0.079766214 0.06538765 -0.0369286
0.1679917 -0.09526078 -0.030295292 -0.03525066 -0.0022824528 -0.0904069 0.021637369 -0.016162597
-0.09629999 0.07075674 -0.0039106896 0.04950991 0.09267005 -0.08153882 -0.09578202 -0.092043325
-0.075607665 0.09185522 -0.031246418 -0.09663072 0.086368784 -0.08441758 -0.090257764 -0.0136531135
-0.07437907 -0.064605705 -0.03829902 -0.09359072 -0.0007678981 -0.031225903 -0.10574113 -0.044659473
0.064559974 0.088250615 -0.042338256 -0.055805665 -0.11523308 0.085944876 0.020470899 -0.08712515
-0.029762791 -0.08399711 0.08017178 -0.08821406 0.0670959 -0.021532938 0.143057 -0.04941545
0.04601482 -0.066527344 -0.09382459 -0.05067263 0.013022384 -0.055522777 -0.037189297 0.0077258567
0.06961012 0.058876477 0.07315218 -0.09372107 -0.028160397 -0.09509715 0.09921868 -0.110429764
-0.07670957 -0.044743493 0.014281464 0.12861049 0.12313591 0.059523944 -0.085798874 -0.04457836
0.08395689 -0.038317755 -0.04137005 -0.040954564 0.008498328 -0.09633983 0.09452094 0.09179134
-0.0509931 0.009661838 0.0041874414 -0.046226874 0.07570205 -0.090872526 -0.082091935 -0.09979792
0.022188295 0.007975509 0.07807149 0.06959418 0.046194296 0.10283554 -0.077568755 -0.028269807
-0.09470895 -0.063453846 0.10105339 -0.043122195 -0.09366319 -0.046063337 0.03345378 -0.099699
-0.057668403 0.09938884 -0.09666354 -0.081349045 0.0329596 0.020378051 0.005427433 -0.07083103
0.069951184 -0.03380133 -0.10030403 -0.043875266 0.08125061 0.063586265 0.09280938 -0.058937404
0.06223172 -0.030107945 -0.0134555325 -0.0692846 0.0014547722 0.02572785 0.029872587 0.012215202
0.07305979 -0.06925426 -0.09773307 -0.039454535 -0.09504801 0.10084935 -0.05465088 0.11175942
-0.022026815 -0.009287142 -0.16183655 -0.03274941 0.0756083 -0.09749332 -0.017208772 0.003490779
0.08550458 -0.037137415 -0.043132547 0.027684353 0.037020877 0.049837142 -0.10450672 -0.07264464
-0.0005540061 0.13732909 -0.00025094347 0.0042887265 0.043533064 0.07823236 0.009972328 -0.05555647
00000000: 301e a13d 509e b8bd fd55 3e3d d4b6 80bd
00000010: 2779 ad3b b8e4 d4b9 7f16 e6bd eac6 153e
00000020: 4d74 bebd 2dab e03a aae4 31bd 5d9b 9d3d
00000030: 0b68 e03d dcc4 ae3d f637 06be e464 73bc
00000040: 9a3a cf3c 3413 9f3d 8b6d 173c e9de 283d
00000050: 909e 3d3d d0b4 fcbd bdf5 d1bb d5b8 8abd
00000060: 1d03 98bb e2c1 3abd 63f4 babc 8af8 0b3d
00000070: 7485 85bc 6e31 9ebd ac30 643e 4704 43bd
00000080: d4de b53b f599 edbd 70ff e7bd efa2 ae3d
00000090: c6fe 7f3d 11ba 01be 474c 083d 91a3 203e
000000a0: 6cec 85bc b9b1 bebd bdb6 d2bd 7b4c 13bd
000000b0: 078a 3c3d 4d5c 113d bf33 12bd a1fb a53c
000000c0: 9203 02bc f699 083e e9f7 f43d 9aef b3bc
000000d0: d1d4 07bd 3c7d 89bd 23a2 f03d 10ee 4a3d
000000e0: 6289 923d aa12 543c 7cea 7b3c 8fcb bc3d
000000f0: 108a 163c 3763 ce3d 0d34 1abc 2857 c3bc
00000100: 1d2f 0abb 9a8f 713d 2b6c dcbc 2027 613d
00000110: ba44 d13d 6e4f 7b3d f3da 34bd e4cc 823d
00000120: e77a 03be a994 95bc 8f91 15be fc92 993d
00000130: a303 02bd ec4b abbd 12cd 15be 6f79 f8bd
00000140: 19f7 90bd 2790 7d3d cb5d f93d 3cf5 3bbc
00000150: 478e b93d 0ead 9e3d 1007 8a3d e17a 82bd
00000160: fce5 8fbc 06e6 7fbc 20c9 0dbd 50c7 853d
00000170: 2213 003e 785c a33d f6e9 853d 7242 17bd
00000180: 0406 2c3e 1518 c3bd d52d f8bc ff62 10bd
00000190: 3495 15bb 4127 b9bd da40 b13c 6c67 84bc
000001a0: ee38 c5bd e9e8 903d 3e25 80bb e7ca 4a3d
000001b0: ccc9 bd3d d3fd a6bd 5d29 c4bd 3681 bcbd
000001c0: 31d8 9abd 971e bc3d 7df8 ffbc 54e6 c5bd
000001d0: 1ee2 b03d 20e3 acbd 10d9 b8bd 4fb1 5fbc
000001e0: 0e54 98bd ff4f 84bd 6fdf 1cbd 7eac bfbd
000001f0: c54c 49ba 77cd ffbc ce8e d8bd daec 36bd
00000200: 0538 843d bdbc b43d e16a 2dbd 7b94 64bd
00000210: 52ff ebbd de03 b03d 96b2 a73c ac6e b2bd
00000220: 19d1 f3bc ad06 acbd 1a31 a43d 93a9 b4bd
00000230: 9369 893d d865 b0bc 897d 123e db67 4abd
00000240: 097a 3c3d 7d3f 88bd 1b27 c0bd 1b8e 4fbd
00000250: d65b 553c da6b 63bd ce53 18bd 2f29 fd3b
00000260: c08f 8e3d 7628 713d cfd0 953d d5f0 bfbd
00000270: a2b0 e6bc 4bc2 c2bd 2a33 cb3d 0029 e2bd
00000280: e819 9dbd f444 37bd cdfc 693c 78b2 033e
00000290: ae2e fc3d 61cf 733d 52b7 afbd cc97 36bd
000002a0: 97f1 ab3d 14f3 1cbd a473 29bd f9bf 27bd
000002b0: 923c 0b3c d14d c5bd 3294 c13d 19fd bb3d
000002c0: 24de 50bd b04c 1e3c ce36 893b 6458 3dbd
000002d0: ad09 9b3d 601b babd d11f a8bd da62 ccbd
000002e0: 3ac4 b53c b6ab 023c f2e3 9f3d 6587 8e3d
000002f0: 3b36 3d3d 719b d23d 5edc 9ebd 1596 e7bc
00000300: c4f6 c1bd 17f4 81bd 14f5 ce3d e6a0 30bd
00000310: 7dd2 bfbd e9ac 3cbd d506 093d fd2e ccbd
00000320: b435 6cbd 608c cb3d 89f7 c5bd 549a a6bd
00000330: a500 073d dfef a63c 9cd8 b13b dc0f 91bd
00000340: 9142 8f3d 4373 0abd 336c cdbd 8db6 33bd
00000350: b866 a63d 8439 823d d812 be3d 5968 71bd
00000360: b0e6 7e3d f0a4 f6bc 9874 5cbc 16e5 8dbd
00000370: 0eae be3a 36c3 d23c 5bb7 f43c 4522 483c
00000380: 5fa0 953d 2dd5 8dbd 4728 c8bd 149b 21bd
00000390: 88a8 c2bd 1b8a ce3d 9ad9 5fbd 1fe2 e43d
000003a0: 9471 b4bc 1929 18bc 7bb8 25be 3f24 06bd
000003b0: 86d8 9a3d 94aa c7bd 69f9 8cbc 8ec5 643b
000003c0: 061d af3d 671d 18bd c1ab 30bd 4cca e23c
000003d0: 34a3 173d 0822 4c3d 9f07 d6bd b7c6 94bd
000003e0: b83a 11ba ff9f 0c3e 1091 83b9 7288 8c3b
000003f0: ba4f 323d 4a38 a03d fa62 233c 2e8f 63bd

mlp2.2.bias f4 [50]
0.08404447 -0.033178028 -0.13422701 0.13771072 -0.15663578 -0.08337722 0.07642025 -0.012480431
0.07843673 -0.037720397 0.008471904 -0.071036816 -0.06276158 0.056315098 -0.039919373 0.010603505
0.096673556 0.03899933 -0.023439685 -0.18108407 -0.07234057 0.029837055 0.007969988 0.030173056
-0.11291531 0.08797472 -0.14235042 0.08054792 -0.039645102 0.10410918 -0.058858946 -0.06803258
-0.05681271 0.03620932 0.081268534 -0.06293269 0.13366243 -0.06438992 -0.030724235 -0.16068888
-0.14204466 0.0062516597 -0.12310247 -0.04932001 0.03391907 0.07296706 -0.100656725 0.059339415
-0.00703346 -0.031787977
00000000: 821f ac3d afe5 07bd ce72 09be 0a04 0d3e
00000010: 2165 20be adc1 aabd 3882 9c3d b97a 4cbc
00000020: 70a3 a03d b480 1abd becd 0a3c c07b 91bd
00000030: 2589 80bd a9aa 663d 7f82 23bd 53ba 2d3c
00000040: c9fc c53d c3bd 1f3d 9504 c0bc 1a6e 39be
00000050: 4b27 94bd d76c f43c 8d94 023c 7c2d f73c
00000060: 2440 e7bd 172c b43d 4fc4 11be 4ff6 a43d
00000070: e762 22bd 3237 d53d 1416 71bd aa54 8bbd
00000080: 72b4 68bd 3950 143d 1e70 a63d dbe2 80bd
00000090: cede 083e ddde 83bd 64b1 fbbc a08b 24be
000000a0: 2874 11be b9da cc3b 261d fcbd c703 4abd
000000b0: b9ee 0a3d c16f 953d 1d25 cebd e30d 733d
000000c0: f078 e6bb 1c34 02bd

attention.0.weight f4 [100, 200]
0.018814363 -0.02135366 -0.038431197 -0.06000367 -0.038288306 0.03101032 -0.04450036 -0.054306146
0.026681067 -0.055586234 0.031299114 -0.016067324 -0.038364667 0.021484355 0.026207019 -0.06233442
0.032073613 -0.011672849 0.02569739 0.042434234 0.057900645 0.030527093 -0.013980541 0.043888856
0.026132915 -0.05652886 0.062024172 -0.042866837 -0.06652142 0.015387708 -0.06224571 -0.003261872
-0.021527283 0.06353724 0.030798975 -0.06306512 -0.015818732 -0.053699475 0.06229111 -0.037060663
0.0035703834 -0.03950629 -0.025992496 -0.0076696207 0.0018323001 0.050632823 -0.05625267 0.025355056
-0.06298009 -0.019696414 0.051497046 -0.0038306601 0.035786953 -0.045821093 0.06023282 -0.02567079
0.04419233 -0.034818254 0.012623891 -0.028788127 0.007203146 0.012907999 0.038176656 0.016543282
0.02857814 -0.011636601 0.045441244 -0.003478644 0.06668076 0.056263115 -0.051705047 -0.019499125
-0.014750414 -0.040522628 0.06848783 0.069273494 -0.044192288 0.0002614214 0.060025804 0.03986072
0.06743856 -0.009826297 -0.052144043 0.018492747 0.061194614 -0.048799068 -0.006585009 -0.068010084
0.025089307 0.05644298 -0.008304427 0.030904034 -0.05823821 -0.05908259 -0.0033054042 -0.0678857
-0.0023186242 -0.011271612 -0.0010109723 0.06237996 0.011601961 -0.05344957 0.03435267 -0.060360346
-0.06749354 -0.027539717 0.037952133 0.03376096 -0.04641496 -0.036489125 0.046802793 -0.048575245
0.0133238025 0.0014362866 0.039781373 0.029451428 -0.041172832 0.050496317 -0.017795485 0.039636716
0.05265294 -0.00017109087 0.00793827 0.06696651 0.0037039092 -0.03196938 0.036595367 0.018237697
-0.03334776 0.043580633 -0.04654233 -0.01645049 0.0024460882 0.048614826 -0.06911118 0.013334259
0.067707874 0.059258565 -0.022873063 0.06503073 0.052335102 -0.055358663 -0.017132346 -0.06673283
0.035963092 -0.05131386 -0.019882953 0.05539779 0.061121147 -0.019238276 0.00207931 -0.042116813
0.015886627 0.028113002 -0.035854142 0.024616051 -0.0467065 -0.011400548 -0.058243267 -0.063001946
-0.062103983 -0.003777439 -0.05382164 0.04130426 0.05855678 -0.024324728 -0.00041322553 -0.0064176745
-0.06761869 0.035645865 0.039570637 -0.056388024 0.030657586 -0.060592506 -0.06572921 0.012026615
-0.0010611422 0.067705445 0.01657288 -0.02814687 -0.058995448 -0.06637906 0.04571435 -0.05774455
-0.026537461 -0.0019143604 -0.06552092 0.03740683 0.065209396 0.02278055 0.013729588 0.029546848
0.01769813 -0.038445562 -0.0027344937 -0.009314433 -0.024823511 0.062687114 -0.03847237 -0.014960605
0.06728738 -0.06581997 -0.016635638 -0.03862905 0.06506549 -0.027211675 -0.030307291 -0.019696875
0.069737 -0.020256223 0.032781787 0.030651495 0.040675577 0.019764313 -0.0324698 -0.07007684
-0.06877709 0.01924927 0.054596495 0.03424838 0.01907158 0.017670434 -0.012163088 0.061619617
-0.07067154 -0.04795653 0.014017093 -0.0149594 0.036761593 -0.015447531 0.046129607 0.061405014
0.044475902 -0.04644204 -0.030385826 0.006766488 0.055181626 -0.031440426 -0.065289386 0.04252806
0.06538598 -0.021839209 -0.011226301 -0.010403708 -0.039626066 -0.046189222 -0.020386554 -0.051674012
-0.018755328 -0.06461225 -0.01943788 0.01261524 0.06991853 0.040925577 -0.018660214 0.021481246
00000000: 9420 9a3c dfed aebc 086a 1dbd 69c6 75bd
00000010: 33d4 1cbd 5b09 fe3c 0246 36bd 1f70 5ebd
00000020: 4192 da3c 64ae 63bd 8033 003d 9f9f 83bc
00000030: 4524 1dbd f5ff af3c 1ab0 d63c 6052 7fbd
00000040: 9f5f 033d 7a3f 3fbc 5583 d23c 85cf 2d3d
00000050: 3a29 6d3d f413 fa3c a40e 65bc cdc4 333d
00000060: b214 d63c ce8a 67bd 0f0d 7e3d 2395 2fbd
00000070: 623c 88bd ba1c 7c3c 5cf5 7ebd 22c5 55bb
00000080: fc59 b0bc d01f 823d 224e fc3c 4928 81bd
00000090: 4996 81bc fbf3 5bbd f724 7f3d eccc 17bd
000000a0: 18fd 693b 59d1 21bd 37ee d4bc 7151 fbbb
000000b0: ca29 f03a 5d64 4f3d 3369 66bd 68b5 cf3c
000000c0: b5fb 80bd 605a a1bc 91ee 523d d00b 7bbb
000000d0: 5795 123d e6ae 3bbd b1b6 763d 8c4b d2bc
000000e0: 0403 353d 969d 0ebd 70d4 4e3c 14d5 ebbc
000000f0: 5e08 ec3b 127c 533c 205f 1c3d c785 873c
00000100: b41c ea3c 71a7 3ebc 9920 3a3d f6f9 63bb
00000110: ec8f 883d 2774 663d acc8 53bd a1bc 9fbc
00000120: b8ab 71bc 0efb 25bd 5943 8c3d 43df 8d3d
00000130: f902 35bd 630f 8939 9edd 753d ff44 233d
00000140: 3a1d 8a3d 7afe 20bc fe94 55bd 1a7e 973c
00000150: 34a7 7a3d 88e1 47bd 0fc7 d7bb df48 8bbd
00000160: 1788 cd3c c130 673d 4b0f 08bc 752a fd3c
00000170: 308b 6ebd 9600 72bd 7b9f 58bb a807 8bbd
00000180: 0ff4 17bb 91ac 38bc 9a82 84ba 2182 7f3d
00000190: 2716 3e3c f0ed 5abd 63b5 0c3d 693c 77bd
000001a0: 0e3a 8abd f99a e1bc b273 1b3d ef48 0a3d
000001b0: 9d1d 3ebd 9f75 15bd 49b4 3f3d d6f6 46bd
000001c0: 144c 5a3c c841 bc3a cbf1 223d 1f44 f13c
000001d0: d8a4 28bd 3ad5 4e3d d6c7 91bc 1c5a 223d
000001e0: 9caa 573d db66 33b9 850f 023c bd25 893d
000001f0: 49bd 723b 53f2 02bd 06e5 153d 3967 953c
00000200: a997 08bd 9b81 323d 2ca3 3ebd 2ec3 86bc
00000210: 8d4e 203b 5720 473d 2a8a 8dbd f077 5a3c
00000220: 6daa 8a3d 1cb9 723d 4a60 bbbc d52e 853d
00000230: 555d 563d c4bf 62bd 2259 8cbc 39ab 88bd
00000240: 094e 133d 7b2e 52bd 93e1 a2bc cbe8 623d
00000250: 2b5a 7a3d 9799 9dbc 0845 083b ae82 2cbd
00000260: ac24 823c 3d4d e63c cbdb 12bd 9aa7 c93c
00000270: 514f 3fbd 5dc9 3abc 7e90 6ebd 2a07 81bd
00000280: bf60 7ebd e98e 77bb 1474 5cbd a82e 293d
00000290: 3cd9 6f3d a744 c7bc 31a6 d8b9 5b4b d2bb
000002a0: ab7b 8abd 6601 123d d214 223d 21f7 66bd
000002b0: 9e25 fb3c d92f 78bd 099d 86bd 480b 453c
000002c0: 0616 8bba 27a9 8a3d d9c3 873c 4494 e6bc
000002d0: 36a5 71bd bff1 87bd f83e 3b3d 8d85 6cbd
000002e0: 1765 d9bc 47eb faba d52f 86bd e737 193d
000002f0: 818c 853d 479e ba3c 11f2 603c 3b0c f23c
00000300: abfb 903c 1879 1dbd 3135 33bb 909b 18bc
00000310: ad5a cbbc 1a62 803d 3495 1dbd 531d 75bc
00000320: f7cd 893d 9fcc 86bd 7647 88bc 7f39 1ebd
00000330: 0e41 853d 05eb debc ff46 f8bc 575b a1bc
00000340: 46d2 8e3d 61f0 a5bc 3246 063d d818 fb3c
00000350: 6f9b 263d c5e8 a13c 0eff 04bd 7284 8fbd
00000360: 01db 8cbd a5b0 9d3c 93a0 5f3d 0848 0c3d
00000370: 013c 9c3c 96c1 903c b047 47bc da64 7c3d
00000380: 3ebc 90bd 116e 44bd f3a7 653c 4518 75bc
00000390: 5393 163d a417 7dbc 66f2 3c3d d383 7b3d
000003a0: 5d2c 363d 023a 3ebd b2eb f8bc 6ab9 dd3b
000003b0: 2106 623d adc7 00bd 71b6 85bd e731 2e3d
000003c0: 16e9 853d 24e8 b2bc 85ee 37bc 5074 2abc
000003d0: f14e 22bd e930 3dbd b401 a7bc 21a8 53bd
000003e0: c6a4 99bc 6d53 84bd 303c 9fbc 27b0 4e3c
000003f0: 7231 8f3d 94a1 273d 4edd 98bc 70f9 af3c

attention.0.bias f4 [100]
-0.035603184 0.029205225 -0.025655758 -0.06325447 0.009045642 -0.042288847 0.0679452 -0.038371574
-0.00884385 -0.004937921 0.029971533 0.04463799 -0.021221457 -0.031831264 0.0541595 -0.027922807
-0.059328943 -0.05138388 0.042923797 0.032569684 0.049315695 0.06482409 0.042726915 -0.03792396
-0.041386947 0.06662108 -0.049185373 -0.03262913 -0.029345077 0.008846225 -0.06934147 -0.01780145
0.026574617 -0.034620296 -0.06810662 0.025635745 0.09859115 -0.012204065 0.013522944 0.026580604
0.061602224 0.050538566 0.06502682 0.075460866 -0.0084886635 0.071933806 -0.05226803 -0.0097209755
0.04566546 -0.052370217 0.0044499272 0.10769352 0.047436308 -0.029670008 0.018965414 0.041321035
-0.02590851 -0.05474383 -0.05184381 0.032445718 -0.028240882 0.0036319913 0.01839179 0.023170404
-0.032334164 0.007520427 0.058306064 -0.054990936 -0.07416062 -0.035817925 -0.052883014 0.08273469
0.06594819 -0.064300895 0.00013824912 0.057643395 0.12230164 0.05392745 0.017474817 0.04230098
-0.05460283 0.002396261 0.073473416 0.019553104 0.046431165 0.035121325 0.014323973 -0.0054143844
0.00120898 0.06883119 -0.033114437 0.05947691 -0.057673696 0.09233882 0.05397892 -0.008519191
-0.014383214 0.10592211 0.049952637 -0.07966423
00000000: a5d4 11bd cc3f ef3c 062c d2bc 8f8b 81bd
00000010: 2c34 143c 1237 2dbd da26 8b3d 832b 1dbd
00000020: cce5 10bc 49ce a1bb dc86 f53c 53d6 363d
00000030: 9fd8 adbc 8061 02bd 5ad6 5d3d 5fbe e4bc
00000040: e802 73bd e777 52bd ddd0 2f3d ca67 053d
00000050: 41ff 493d 7ec2 843d 6b02 2f3d 2756 1bbd
00000060: 5c85 29bd a270 883d 9a76 49bd 1fa6 05bd
00000070: 1665 f0bc c2ef 103c e702 8ebd 59d4 91bc
00000080: 03b3 d93c 03ce 0dbd 7c7b 8bbd 0e02 d23c
00000090: 28ea c93d 8ff3 47bc 578f 5d3c 91bf d93c
000000a0: 9d52 7c3d 8701 4f3d c82c 853d 3a8b 9a3d
000000b0: 0914 0bbc 0852 933d 0017 56bd ba44 1fbc
000000c0: b50b 3b3d 2782 56bd b2d0 913b 6c8e dc3d
000000d0: 934c 423d 840e f3bc 5b5d 9b3c 3f40 293d
000000e0: 153e d4bc 113b 60bd 2d5a 54bd cde5 043d
000000f0: 6c59 e7bc b406 6e3b 61aa 963c dccf bd3c
00000100: d470 04bd ea6d f63b 57d2 6e3d 2d3e 61bd
00000110: 86e1 97bd d1b5 12bd dc9b 58bd ce70 a93d
00000120: d80f 873d 30b0 83bd f7f6 1039 7b1b 6c3d
00000130: 4879 fa3d 08e3 5c3d 5927 8f3c cb43 2d3d
00000140: 38a7 5fbd 970a 1d3b 3b79 963d d52d a03c
00000150: 9b2e 3e3d 61db 0f3d 19af 6a3c 266b b1bb
00000160: a376 9e3a 5ef7 8c3d 01a3 07bd 0f9e 733d
00000170: 413b 6cbd 231c bd3d 0019 5d3d 1494 0bbc
00000180: 92a7 6bbc b1ed d83d 239b 4c3d 0027 a3bd

attention.2.weight f4 [100, 100]
-0.013670959 -0.01323429 -0.06439604 0.078261286 0.0750523 -0.018728537 0.03853755 0.05650445
0.09693256 0.010589954 -0.038969956 -0.07021452 -0.0061315247 0.04220752 0.02655319 -0.010329738
0.06976711 0.08813265 0.0037308466 0.053216506 -0.015174334 -0.029358579 0.02257062 -0.020588314
-0.086248614 -0.07532875 -0.047662765 -0.05655963 0.0151028205 0.049294107 0.044049703 0.02146255
-0.047496654 0.100217596 -0.048019398 0.026146136 0.07118333 0.038917787 0.015249948 -0.012127533
-0.09905543 0.012626112 -0.11376094 -0.06031781 0.016345223 -0.09136862 0.05362292 -0.013027951
0.110818416 0.018031063 0.014414262 0.047688793 -0.014547855 -0.027487276 0.053979892 0.0051702242
-0.05908054 -0.029295007 0.028277604 -0.10698881 -0.093198344 -0.085001506 -0.044901993 0.020355208
-0.0098868655 0.009826791 0.13471077 -0.08596244 -0.0631998 -0.09475242 -0.11754868 0.021369373
-0.06932117 -0.045300595 -0.06969307 0.107600294 0.032829706 0.07567658 0.036885396 -0.04173338
0.07387403 -0.0350162 0.04295598 0.07241819 -0.06970958 0.027315883 -0.04235357 0.043301847
0.06494965 0.069096394 0.010771563 -0.03926474 0.06270137 -0.008174171 -0.031477984 0.004252011
-0.017286727 -0.066871434 0.06923096 0.070162445 -0.015191548 -0.09463186 -0.023534534 -0.052277613
-0.060813416 0.084925614 -0.09327819 -0.089154534 0.041402876 -0.018589882 -0.09896892 -0.007963989
0.026380325 0.023987593 -0.08109672 -0.02951261 -0.028541375 -0.09728176 0.020664321 -0.052513193
0.089507304 0.030584885 -0.017835798 0.010792481 -0.094852164 0.17278416 -0.01235338 -0.023517672
-0.046486374 -0.086744405 -0.018855292 -0.0089684995 0.06679234 -0.06882935 -0.06772127 -0.097916864
0.03981326 0.08752422 -0.01953591 0.07999419 0.04974359 -0.01626174 0.1267708 -0.014768359
0.02750487 0.033711314 0.0011467624 -0.08751448 -0.12684558 0.032421805 0.027258556 0.07397753
-0.035996757 0.017199555 0.059703883 -0.05233788 -0.044850893 -0.08437404 0.03282192 0.069733545
-0.027949639 0.0034367363 0.006719518 0.004885854 0.030686133 -0.06646207 -0.0102744 -0.018799921
0.027548878 -0.06962571 -0.07341044 0.026479162 -0.08931339 -0.09203189 0.054535393 -0.07078917
0.0610644 0.05039501 0.036839604 -0.008947939 -0.021596003 -0.032589763 -0.061431486 0.03785677
-0.07805662 0.095050216 0.02863375 -0.068734735 -0.040205058 0.07037408 -0.048833273 -0.052501187
0.07244228 -0.050184492 0.004560769 -0.071156375 0.024074456 -0.077734105 -0.00913302 -0.09528816
0.020235693 0.04629832 -0.044226743 -0.06222498 0.08871541 0.04186324 -0.09931266 0.09407052
-0.02456454 -0.032743365 -0.09960863 -0.04215752 -0.019038588 0.088109896 -0.0066981316 -0.020102378
0.04147286 -0.070697546 -0.046206042 -0.10067339 0.011504534 0.08636549 -0.087071605 0.031340264
0.075000525 0.16530427 0.03683854 -0.07235974 -0.09812025 0.012014988 -0.08119031 0.06633036
0.07891572 -0.047050744 -0.097036324 -0.055692412 0.10878991 -0.018746683 0.043566674 0.010906249
0.007033244 -0.062430684 -0.06959449 0.072050124 -0.07072972 -0.07788549 0.024245016 0.046255857
-0.102885745 0.07970059 -0.045119513 0.007263675 0.012898483 -0.07587512 0.06242127 -0.11027449
00000000: 28fc 5fbc a3d4 58bc 12e2 83bd 7447 a03d
00000010: 05b5 993d 976c 99bc 8dd9 1d3d 3671 673d
00000020: 9484 c63d 7d81 2d3c f69e 1fbd a1cc 8fbd
00000030: f5ea c8bb cbe1 2c3d 1386 d93c 103e 29bc
00000040: 0fe2 8e3d e47e b43d 3881 743b 8df9 593d
00000050: c59d 78bc 6781 f0bc 05e6 b83c d3a8 a8bc
00000060: 1da3 b0bd f645 9abd 083a 43bd 12ab 67bd
00000070: d271 773c 9ee8 493d 766d 343d 3bd2 af3c
00000080: da8b 42bd e23e cd3d fdaf 44bd 6c30 d63c
00000090: 91c8 913d 4268 1f3d ebda 793c 8fb2 46bc
000000a0: 93dd cabd c1dd 4e3c 7ffb e8bd cf0f 77bd
000000b0: 6be6 853c 791f bbbd b5a3 5b3d 3073 55bc
000000c0: c4f4 e23d e1b5 933c cc29 6c3c 5355 433d
000000d0: 205a 6ebc ff2c e1bc 051a 5d3d fc6a a93b
000000e0: 70fe 71bd 15fc efbc 6fa6 e73c f31c dbbd
000000f0: c6de bebd 4515 aebd 27eb 37bd f7bf a63c
00000100: 85fc 21bc 8c00 213c 9ff1 093e 130d b0bd
00000110: e66e 81bd 8f0d c2bd 5dbd f0bd d30e af3c
00000120: 42f8 8dbd 1e8d 39bd 3ebb 8ebd 8b5d dc3d
00000130: 7178 063d 53fc 9a3d 2415 173d 9ff0 2abd
00000140: 444b 973d 266d 0fbd 9cf2 2f3d fd4f 943d
00000150: e5c3 8ebd 8fc5 df3c f07a 2dbd 475d 313d
00000160: 5204 853d 6982 8d3d 367b 303c 10d4 20bd
00000170: 9369 803d f5ec 05bc 0fef 00bd 7454 8b3b
00000180: e59c 8dbc e4f3 88bd f6c8 8d3d 54b1 8f3d
00000190: f8e5 78bc 59ce c1bd 7fcb c0bc 0d21 56bd
000001a0: 7d17 79bd 7bed ad3d a308 bfbd a796 b6bd
000001b0: 1096 293d cf49 98bc 38b0 cabd 647b 02bc
000001c0: 8d1b d83c a181 c43c 0a16 a6bd 6ec4 f1bc
000001d0: 9acf e9bc a93b c7bd 3948 a93c 1318 57bd
000001e0: 9b4f b73d 278d fa3c 611c 92bc f2d2 303c
000001f0: da41 c2bd 55ee 303e d565 4abc 22a8 c0bc
00000200: 7f68 3ebd 0da7 b1bd 6a76 9abc 9df0 12bc
00000210: 6cca 883d 67f6 8cbd 73b1 8abd a388 c8bd
00000220: 3b13 233d e63f b33d c609 a0bc fed3 a33d
00000230: efbf 4b3d 5737 85bc 34d0 013e fdf6 71bc
00000240: e551 e13c e014 0a3d f64e 963a cb3a b3bd
00000250: cfe3 01be bacc 043d 564d df3c 8881 973d
00000260: 5671 13bd 15e6 8c3c 0f8c 743d 3f60 56bd
00000270: 92b5 37bd 4ccc acbd 4770 063d 76d0 8e3d
00000280: a4f6 e4bc de3a 613b 672f dc3b 8419 a03b
00000290: 7c61 fb3c 441d 88bd f555 28bc 4b02 9abc
000002a0: 2fae e13c ed97 8ebd 3658 96bd d4ea d83c
000002b0: f0e9 b6bd 377b bcbd 8160 5f3d eaf9 90bd
000002c0: aa1e 7a3d ff6a 4e3d 20e5 163d 609a 12bc
000002d0: 1aea b0bc d87c 05bd 959f 7bbd b30f 1b3d
000002e0: 26dc 9fbd b0a9 c23d 5391 ea3c ccc4 8cbd
000002f0: 0fae 24bd 4920 903d 6605 48bd 7c0b 57bd
00000300: 9e5c 943d 418e 4dbd 8172 953b 6fba 91bd
00000310: cb37 c53c 0f33 9fbd aaa2 15bc 7026 c3bd
00000320: 53c5 a53c 4fa3 3d3d 1a27 35bd 9fdf 7ebd
00000330: 6db0 b53d ca78 2b3d 7064 cbbd 0ba8 c03d
00000340: 933b c9bc e81d 06bd 9cff cbbd 5dad 2cbd
00000350: d0f6 9bbc f672 b43d 007c dbbb bead a4bc
00000360: 72df 293d e0c9 90bd 8c42 3dbd da2d cebd
00000370: 837d 3c3c 64e0 b03d 9952 b2bd a65e 003d
00000380: e099 993d 8645 293e 02e4 163d 5831 94bd
00000390: 45f3 c8bd 83da 443c 1b47 a6bd 36d8 873d
000003a0: 919e a13d 48b8 40bd fbba c6bd ba1d 64bd
000003b0: 3fcd de3d a592 99bc f872 323d 20b0 323c
000003c0: 2077 e63b 51b7 7fbd 8e87 8ebd 048f 933d
000003d0: beda 90bd 6e82 9fbd 7c9d c63c c876 3d3d
000003e0: c3b5 d2bd 103a a33d 3dcf 38bd 1f04 ee3b
000003f0: 2954 533c 6a64 9bbd 72ad 7f3d 98d7 e1bd
