catkin_ws/src/sarl/crowd_nav/model/rl_model.pth (torch_old, 389084 bytes, 20 tensors)

mlp1.0.weight f4 [150, 13]
000000 dc 67 4f 3c 02 8f 8c 3e 10 f8 4e 3e 6b 2b 60 3e
       0.012659039 0.27452856 0.20211816 0.21891563
000010 04 46 a4 be 05 24 aa be 83 fe 85 3e 8c 94 99 3e
       -0.32084668 -0.33230606 0.2617074 0.29996145
000020 a5 cc 27 be 69 2a b5 bc 79 21 04 bf 16 c3 96 3d
       -0.1638666 -0.02211495 -0.51613575 0.073614284
000030 70 c8 c6 be c1 f2 55 3e 2a 6d c2 be c0 ed f3 3c
       -0.38824797 0.20893385 -0.3797391 0.029776454
000040 a3 66 86 be 00 59 51 be 58 96 5f 3e 56 c9 c4 bd
       -0.2625018 -0.20444107 0.21834695 -0.09608714
000050 a3 13 d0 bd cb 2c f0 3e 1c c1 10 3d b7 ee b7 3e
       -0.101599954 0.46909174 0.035340413 0.35924312
000060 ce 4d be bb 0c d2 6e 3e 27 11 2f be a7 77 76 3e
       -0.005807615 0.23322314 -0.17096387 0.24069081
000070 f4 fa 3b be 28 13 34 bd e5 60 80 be 96 29 44 3e
       -0.1835745 -0.04396358 -0.25073925 0.19156489
000080 6e 1a db bd f7 ea 49 be 74 14 21 3d fe 54 78 be
       -0.106984004 -0.19718538 0.039326146 -0.24251172
000090 8e 14 17 be ce 4a 6c 3d d7 ff c9 bd 8d d2 a4 bc
       -0.14753935 0.057688527 -0.09863251 -0.02011993
0000a0 98 9c ad 3e 4c 3f 21 be 39 d0 26 be 93 97 b4 be
       0.33908534 -0.15746802 -0.16290368 -0.35271892
0000b0 fa f2 3b be 65 fa bf 3d 5e e5 12 3e e7 67 32 3d
       -0.18354407 0.09373931 0.14345309 0.04355612
0000c0 f6 60 16 bd a9 91 da bd 76 54 2f bd 4b b1 e3 be
       -0.036713563 -0.10672314 -0.042805158 -0.444712
0000d0 4d 4b 19 3e 5d b8 66 be 3c 16 bc 3d d8 55 9d be
       0.14970131 -0.22531267 0.09183928 -0.30729556
0000e0 3e 5e 03 3e a6 90 b2 bd 5a a9 5c be ee 67 31 3e
       0.1282892 -0.08718996 -0.21548977 0.17324802
0000f0 2d fb 0f bf ee 90 1f 3f e0 21 b9 3d f3 f9 00 3e
       -0.5624264 0.6233052 0.09039664 0.12595348
000100 7d 61 8e be 4c 86 93 bd 58 b4 72 be 3b 58 14 be
       -0.27808753 -0.072033495 -0.23701608 -0.14486782
000110 13 24 9d bd 40 4e 34 3e 8d f7 38 be 9b f1 94 3d
       -0.07672896 0.17607975 -0.18063183 0.07272645
000120 85 01 f8 3e 0d b9 95 be 27 a7 bd 3c bc cf 8e be
       0.4843866 -0.29242745 0.023150994 -0.27892864
000130 02 56 15 3e d3 f0 5d 3e 6f 4f c4 3c 6b 11 51 bd
       0.1458359 0.21673898 0.023963658 -0.051042
000140 38 2d 89 3d 14 e4 d3 bd a5 6a bb bc ca 0b 66 3e
       0.06698078 -0.10346237 -0.022878 0.22465435
000150 10 6c 48 3d 14 49 e4 3d ab 1f ea 3c 94 ad b8 3e
       0.04893118 0.11146751 0.028579554 0.3606993
000160 93 06 3f 3e 2e ec 17 3c 61 c5 6e be fb 04 30 bd
       0.18654852 0.009272618 -0.23317482 -0.0429735
000170 41 1d e6 3c 1a b9 82 be 58 06 98 be 27 ad dd 3e
       0.028090121 -0.25531846 -0.2969234 0.43296167
000180 f8 7a db bd aa e1 39 3e a4 24 28 be fe 70 46 3f
       -0.10716814 0.1815249 -0.16420227 0.7751616
000190 c1 36 08 bf 31 e8 2f be 6c ca ac 3d 73 5c 85 be
       -0.5320855 -0.17178418 0.084370464 -0.26047096
0001a0 f0 0a 35 bd 6c 68 87 3e 7b 5c 83 3e 22 7c b9 3d
       -0.044199884 0.26446855 0.25656494 0.090568796
0001b0 dd 0c f6 bd 87 99 6c 3e da 01 b1 be 97 37 99 3d
       -0.12014172 0.23105441 -0.34571725 0.07481306
0001c0 bd a7 b4 be 58 82 9d be 06 23 d5 3d 15 db d2 3e
       -0.35284224 -0.30763507 0.10407071 0.4118277
0001d0 e0 2a 74 bc 9f dc 84 3e bf b5 1a be a8 6a 0c 3d
       -0.0149028 0.2594957 -0.15108393 0.034281403
0001e0 e5 46 7a be 6d 7f 8b bb cf ac e5 3e 21 af af be
       -0.24441107 -0.0042571337 0.44858405 -0.343133
0001f0 68 8f 07 be ce 9b 47 3e 31 b8 6f be 35 17 44 be
       -0.13238299 0.19493029 -0.23410107 -0.19149478
000200 53 6d 42 3e f1 e1 d0 be 2a 77 8f bd ad e0 59 be
       0.18987016 -0.4079738 -0.070051506 -0.21277113
000210 f0 91 4b be 13 2f 11 be 9b 01 09 be fc 23 73 3e
       -0.1987989 -0.14178114 -0.13379519 0.23744196
000220 ab 0b 53 3c 71 0a da bd 66 d1 43 bd 22 be 84 3e
       0.0128812 -0.10646523 -0.04780712 0.2592631
000230 41 0b 46 3e 34 2e 04 bd 44 c6 23 3e 0b ae 34 3d
       0.1934023 -0.032270625 0.15993601 0.044111293
000240 2d 00 f8 3d 52 d6 65 3e b0 5f 70 bd ca 0b 17 3e
       0.121094085 0.22445038 -0.058685005 0.14750591
000250 a2 c8 19 3e 0a 1b 0d bf d1 ca ad bd 77 1f ee be
       0.15017942 -0.55119383 -0.0848595 -0.4650838
000260 48 16 38 be cf 35 8f 3c 55 08 d8 3e 07 2d 8e be
       -0.1797725 0.017481713 0.42193857 -0.27768728
000270 9c e1 ef bd a2 97 d5 3d 58 98 32 3e ac 1b 5e bd
       -0.117129534 0.10429312 0.17440927 -0.05422561
000280 8d cb 13 3e c1 3a a8 3e 80 c7 87 3e ca b3 87 3e
       0.14433117 0.32857326 0.26519394 0.26504356
000290 b7 d8 f8 bd 31 1f a3 bc 02 54 13 bd ac 38 0c be
       -0.1215071 -0.019912334 -0.035968788 -0.13693494
0002a0 f2 98 33 3e 32 b0 7f 3d 9d 1f 13 3f 34 43 1d bd
       0.17538813 0.062423892 0.57470113 -0.038394168
0002b0 f6 4d aa bc c8 ac d1 be 06 21 17 bf 3a 32 9f be
       -0.020789128 -0.40952134 -0.59034765 -0.31093007
0002c0 f3 ff 27 3e 29 20 70 3e 63 9c 54 3e 3c 0d 43 bf
       0.1640623 0.23449768 0.20762782 -0.7619207
0002d0 b6 ea 74 3e e7 5a 22 bf 6a 29 c3 3d d5 59 2d be
       0.2391766 -0.63419956 0.095293835 -0.169288
0002e0 d4 14 86 bd 31 b0 54 be 4a fe 26 be 4b 87 1e 3e
       -0.065469414 -0.20770337 -0.16307941 0.15481298
0002f0 58 87 ad bd 3e 87 d1 be 2f 1d f6 bd 5f 27 ba 3d
       -0.084730804 -0.40923494 -0.12017285 0.09089541
000300 6e 7f e9 bd 78 20 30 3e 2e bb f7 3d 1d 42 b9 3d
       -0.114012584 0.17199886 0.120962486 0.09045813
000310 37 42 02 be 32 d8 9f bd b2 d0 0c bd f3 5d 31 3e
       -0.12720571 -0.07804908 -0.034378715 0.17320995
000320 b9 fe 34 bd d9 01 28 be f3 63 f6 3d 32 10 bb 3e
       -0.044188235 -0.16406955 0.120307826 0.36535794
000330 af 59 72 be 8c 52 52 be b3 32 37 bd fb 2f af bd
       -0.23667024 -0.20539302 -0.044726085 -0.085540734
000340 ec fa 3f 3d 8a 8a 07 be dc 08 3d 3e eb 6a 22 be
       0.046870157 -0.13236442 0.18460411 -0.15861098
000350 ba ca 20 bd c2 d7 69 3d 75 55 c9 3e 80 11 c0 be
       -0.039255835 0.05709053 0.3932301 -0.3751335
000360 9e 0f 76 be 34 eb bd be 28 2f 27 3e 0a 36 1d be
       -0.24029395 -0.37093508 0.16326582 -0.15352646
000370 25 dd 9b 3e 57 de 6f be 20 08 08 bd 4c d4 31 be
       0.30442157 -0.2342466 -0.033210874 -0.17366141
000380 a3 df 99 3d 2b f5 0a 3e 3f e1 dd bd b4 11 8e 3e
       0.075133584 0.13570087 -0.10833978 0.2774788
000390 16 3d bf be 04 a5 8f be 25 4d 1e be 4f 0a 8b bd
       -0.37351292 -0.28055584 -0.15459116 -0.067890756
0003a0 fc cc b5 3d 7a 7a 6d 3d ae 12 26 3c 19 90 17 3e
       0.08876988 0.05797813 0.0101362895 0.14801063
0003b0 60 40 55 bc 8f 1c 7a 3e 22 ae 0a bf d9 9c 0c 3f
       -0.0130158365 0.24424957 -0.54171956 0.5492683
0003c0 37 7c 2e bc fc 34 fb 3c 1b f9 c0 bd 13 5b 0b 3e
       -0.010649732 0.030664913 -0.09422513 0.13608961
0003d0 fd 44 49 be b2 94 4d bd 55 77 1c be cb e4 fc 3c
       -0.19655223 -0.050190635 -0.15279897 0.030870816
0003e0 19 0e 95 3e eb 2f 51 be 0f e6 a6 bd a5 0c aa be
       0.29112318 -0.20428436 -0.08149349 -0.33212772
0003f0 53 bd b4 bd ad 72 f9 be 47 3d 78 be 09 3b 0c be
       -0.08825173 -0.48720303 -0.24242125 -0.13694395

mlp1.0.bias f4 [150]
000000 d0 17 02 3e 8b c9 b3 be 1a 61 8c be 9d 79 70 3e
       0.12704396 -0.35114703 -0.27417833 0.23483892
000010 36 0a 2f 3d e0 f5 39 3e 20 03 37 3d 8b 9c 39 be
       0.042734347 0.181602 0.044680715 -0.18126123
000020 15 57 e2 3d 9c 6b 77 be ce 7a a8 3d 2d f7 a0 be
       0.11051766 -0.24162143 0.08226548 -0.3143858
000030 03 51 85 3e f8 8a 08 3e 50 5d c3 bc be ee 25 3d
       0.2603837 0.13334262 -0.023848206 0.040510885
000040 d0 e8 ed bd d3 2d 22 3e c7 bf c1 3e 64 79 dc 3e
       -0.11616671 0.15837793 0.37841627 0.43061364
000050 36 0c 9e 3d d6 d8 6e 3e bb d4 3b 3e a7 99 09 3f
       0.07717173 0.23324904 0.18342869 0.5375008
000060 07 4a a8 bd 8d 8d 75 3c 83 54 f1 bc 43 ec 22 bd
       -0.082172446 0.014987362 -0.029459244 -0.039776098
000070 0a 74 10 be 40 30 10 be 5b 76 4f be 08 6a 49 3e
       -0.14106765 -0.14080906 -0.20259993 0.19669354
000080 69 a4 90 be bb 69 e3 bc 0c 40 25 3e 76 47 c1 bd
       -0.28250435 -0.027760377 0.16137713 -0.09437458
000090 40 ab 16 3e 83 4e 2d 3c 68 d9 85 be 14 f9 70 be
       0.14713764 0.010577801 -0.2614243 -0.23532516
0000a0 f0 a2 9b 3e d0 96 b7 3e 3f 98 74 3e a2 bd e0 bc
       0.3039775 0.35857248 0.23886202 -0.027434174
0000b0 13 64 78 be ab 33 b4 bd cc 35 a2 bd 8f 24 04 bd
       -0.24256925 -0.087989174 -0.07920417 -0.032261427
0000c0 3a 19 45 be 67 0d 58 be 21 37 50 be 74 2f 05 bc
       -0.19247904 -0.21098863 -0.2033353 -0.0081289895
0000d0 91 59 86 be 43 56 53 3e 39 eb 44 3d 9f 9e 62 3d
       -0.2624021 0.20638375 0.04807589 0.055327054
0000e0 dc de 9f 3e ed 20 bb 3d 00 59 3d be 68 8a 43 be
       0.31224716 0.091371395 -0.18490982 -0.19095767
0000f0 83 80 98 bc f0 c5 09 be a4 e8 1f 3e 9a 1f 8c be
       -0.018615967 -0.13454413 0.15616089 -0.2736786
000100 21 3d b3 bd 7d d9 3c be be 8f 83 3e 61 a2 1c 3d
       -0.08751894 -0.1844234 0.25695604 0.038240794
000110 b4 13 83 3b 93 b3 a8 be 21 77 89 bc 6a 0e ab 3e
       0.0040001515 -0.32949504 -0.016780438 0.33409435
000120 e2 1d 6e 3d c1 0f 64 be 31 95 d9 bd e5 43 24 be
       0.058133967 -0.22271635 -0.10624159 -0.16041525
000130 8c b7 c9 3d 4c 5a 05 be 9b 5e 5e 3d c7 8c 78 be
       0.09849462 -0.13022727 0.05428944 -0.24272452
000140 f9 81 ca 3e bb 63 50 3d d3 12 15 be c8 d2 d8 3d
       0.39552286 0.05087636 -0.14557962 0.10587078
000150 58 de 5e 3e 6d 2e 88 3e 36 7f 74 be bd bf 41 3e
       0.21764505 0.2659792 -0.23876652 0.18920799
000160 f6 66 98 3e f0 92 66 be 13 54 ae 3e 5a d1 62 be
       0.29766053 -0.2251699 0.3404852 -0.22150174
000170 48 6c 6c bc e5 ba 4e be 6c 87 14 be fe e5 62 be
       -0.014430113 -0.20188482 -0.14504784 -0.22158048
000180 72 8f 7d 3e 49 81 7f be 1d 88 ab 3b ee fa 2e be
       0.24761751 -0.24951662 0.005234732 -0.1708791
000190 1e d3 d1 3d 99 c6 06 be 2e c9 5c be c4 ca b0 bd
       0.102453455 -0.13161696 -0.21561119 -0.086324245
0001a0 a1 7d 94 3d 52 51 d0 3d c6 11 5a 3d 40 2f 1e be
       0.07250524 0.101717606 0.053239606 -0.15447712
0001b0 b9 db 0b bc d4 51 1e bd 57 65 7e be da 7b 8c 3e
       -0.008536273 -0.038652256 -0.24843346 0.2743824
0001c0 d5 f9 b0 bc f6 60 e9 3d 0e 13 27 3e d5 f4 ae bd
       -0.021603504 0.11395447 0.16315863 -0.08542792
0001d0 29 f0 63 3e 4b a2 5c bd a4 0a a5 bd bd 6b c2 bd
       0.22259583 -0.053865712 -0.0805867 -0.09493206
0001e0 95 d3 10 be 71 6b 4e be 9b 95 3d be 0c e7 88 be
       -0.14143212 -0.20158173 -0.18514101 -0.26738775
0001f0 c8 bd 7d bd f5 76 32 3c 30 2b 27 be 21 7b d5 3d
       -0.061948568 0.010892619 -0.16325068 0.104238756
000200 2e 11 9d 3e 46 b9 12 be 65 97 97 3e 6b c8 9d 3d
       0.3067717 -0.14328489 0.29607692 0.07704242
000210 0a 57 aa bd a7 92 00 bf ec 87 c7 bd 06 49 60 3e
       -0.08317383 -0.50223774 -0.09742722 0.21902856
000220 86 5b 8b 3d d3 e5 71 be e2 ba a2 be fb a6 17 3e
       0.06804566 -0.23622827 -0.31783205 0.14809792
000230 45 45 18 3e 0c 1d ae 3a 48 af 73 3e ba 18 30 bd
       0.14870174 0.0013283803 0.23797333 -0.04299233
000240 e1 45 4f be 5c 75 72 be d3 f6 77 be 81 77 92 3e
       -0.202415 -0.23677582 -0.2421525 0.286068
000250 28 c6 c7 be b4 53 a4 3e
       -0.3901837 0.3209511

mlp1.2.weight f4 [100, 150]
000000 48 34 6c bd f1 21 40 3d db f1 36 bc f6 e5 e5 3b
       -0.057667047 0.04690737 -0.011166061 0.007015939
000010 ee 8c b3 bd 31 d6 f8 3b 39 1d 90 bd 24 85 26 3d
       -0.087671146 0.007593893 -0.07036824 0.040654317
000020 60 6b 8a bd 63 9d 0b 3c 15 06 87 bd 9f d3 0a bc
       -0.067587614 0.008521411 -0.06592957 -0.008473306
000030 6f 26 cd 3c ba eb 7e bc e5 13 a4 bc f3 3f bc bd
       0.02504274 -0.015559131 -0.020029018 -0.09191885
000040 fa 56 0a 3e 2e b3 fe 3c 90 b6 81 bd 97 d3 6e bb
       0.13509741 0.031091299 -0.06333649 -0.0036442035
000050 60 fd 2b 3d e7 21 9a 3b ba b7 b1 3d c4 f1 9e bc
       0.041989684 0.0047037485 0.08677621 -0.019402392
000060 07 38 92 bb 86 64 8d 3d 6b 15 ee 3b 00 09 d6 3d
       -0.0044622454 0.06903939 0.007265737 0.10450935
000070 bb 11 84 bc 9e 03 7f 3c d9 5d 1d bb 57 73 69 bd
       -0.016121736 0.015564827 -0.0024012236 -0.056994762
000080 45 be 9d 3c ce f3 97 3d 5b 64 66 bc bb 64 14 3d
       0.019255767 0.07419549 -0.014062013 0.036228877
000090 69 d3 5f bd f1 c7 50 bd aa 81 d5 3c 16 56 44 3c
       -0.054644976 -0.05097193 0.026062805 0.011983415
0000a0 f3 f3 95 bd 62 2f 9b bd 83 3c 3b 3d 89 1f 21 bc
       -0.0732192 -0.07577397 0.045712005 -0.009834179
0000b0 29 59 6a bd 13 9d 1e 3d e8 4f bd 3d 5d b6 cf bc
       -0.057213936 0.038724016 0.092437565 -0.025355512
0000c0 d1 e7 e5 3c fb 77 3c bd 70 0b 6a bb b4 6e d2 bb
       0.02806464 -0.04601286 -0.0035712384 -0.0064218882
0000d0 3f 2c 9d 3d 84 6a 96 3d 09 1f a2 3b ae 5f 86 3d
       0.07674455 0.07344535 0.0049475473 0.06561218
0000e0 19 7e d3 bc 9e f9 b0 3d 66 5b 50 3d 5c 21 cb bc
       -0.025816964 0.08641361 0.050868414 -0.02479618
0000f0 f9 f7 b5 3b 21 33 13 bb e6 94 93 3d 97 de f4 bc
       0.0055532423 -0.0022460895 0.072061345 -0.029891295
000100 28 07 86 bc 54 18 99 bd 15 95 6c 3d 3d 3b 31 3d
       -0.016360834 -0.07475343 0.057759363 0.043269385
000110 ca 14 38 bd 14 49 97 ba ee 31 61 bd 01 6f 5c 3d
       -0.0449417 -0.0011542165 -0.054979257 0.0538168
000120 ce f7 b8 bd 35 06 58 3d a6 be 15 bb 88 7f 16 bd
       -0.0903164 0.052740294 -0.002284923 -0.036742717
000130 83 51 1d 3d fa 2d 27 3d 9e 9c ad bd 19 56 c0 3d
       0.038407814 0.04081533 -0.08477138 0.09391422
000140 2d a5 ca bd 80 d9 aa 3b 37 9f 20 3d c6 7c 15 bd
       -0.09894786 0.0052139163 0.03921434 -0.036495946
000150 bf 43 00 3e 5d 4b b8 3c 52 bc db bc 7a 23 9e 3d
       0.12525843 0.022496874 -0.026823197 0.0772161
000160 02 d2 ea bc 43 9a 21 bb 43 13 2b 3d aa 72 76 bd
       -0.028664593 -0.0024658598 0.041766416 -0.060167946
000170 e9 e0 08 3d 4d 88 a8 3b 93 d7 af 3d 2a 5a 8f bd
       0.033417616 0.0051432014 0.085860394 -0.06999619
000180 09 1d b9 3d 26 36 3c bd 17 b8 30 bd ca e4 bf 3c
       0.09038741 -0.045950077 -0.04314431 0.023424525
000190 48 c7 88 bc f8 25 d0 bd f6 d3 ce bd 78 b3 a5 3d
       -0.016696587 -0.10163492 -0.10099022 0.080908716
0001a0 38 c3 97 bd bb ef 73 3c 11 77 32 3d ac af d1 3c
       -0.07410282 0.014888699 0.04357058 0.025596462
0001b0 ed ab 2c bd 50 7b d4 bc e0 81 13 bd 55 95 72 3d
       -0.04215615 -0.025937706 -0.03601253 0.059224445
0001c0 4a f6 f4 3c d1 e0 ec bc 65 3d 01 3d 02 b1 75 bc
       0.029902596 -0.028915795 0.03155269 -0.014995815
0001d0 c4 1a c6 3d a2 e3 29 3d cc f8 b0 3d 19 1f bb bc
       0.09673074 0.041476853 0.08641204 -0.022841977
0001e0 60 8f 70 bb 8b 8d 53 bd c2 86 32 3d d0 e2 27 3d
       -0.0036706552 -0.051648658 0.043585546 0.04098779
0001f0 e6 39 c1 bd b4 9f 45 3d 64 03 8a bd 65 be 20 3d
       -0.094348714 0.048248008 -0.06738928 0.039244074
000200 30 84 3f 3c 3c b8 81 bc 23 a7 63 bd dd e8 64 3d
       0.011689231 -0.01583492 -0.055579316 0.05588614
000210 42 3f 44 bc f0 98 9d 3c b9 29 94 3b 89 86 2e 3d
       -0.011977972 0.019237965 0.0045215753 0.04260877
000220 e7 77 12 3a ee b4 a6 bd e5 85 2c bd a5 ab 9f 3d
       0.0005587325 -0.08139978 -0.04211988 0.077964105
000230 d3 2d e1 bc f3 88 83 bd 00 3a bd bd 27 05 69 ba
       -0.027487671 -0.06422605 -0.09239578 -0.00088890124
000240 ed fa 19 bd 8a cf 9e 3d a5 87 a5 3c e0 14 11 bc
       -0.037592817 0.07754429 0.020206282 -0.008855075
000250 ba 3a f4 3c ea 4d 16 3d f3 d6 5d 3d e5 99 08 be
       0.02981316 0.0366954 0.05416007 -0.13339956
000260 4a 1d 8f 3d c0 87 03 3c 22 2f 26 3d 78 41 96 3b
       0.06988008 0.008027971 0.040572293 0.004585441
000270 99 d5 53 3c 49 8b 84 bd 26 8f 45 bd b5 bb a9 bd
       0.012929344 -0.06471879 -0.04823222 -0.082877554
000280 f9 c5 8a bd 1d 48 10 be 8f 51 9e bd 8f af f4 3d
       -0.067760415 -0.14090009 -0.077304 0.11947548
000290 af ba f7 bc 6b 30 7b 3d a8 35 21 bd a9 aa 74 bd
       -0.030240385 0.06132547 -0.03935781 -0.059733067
0002a0 e3 bd 23 bb b5 07 26 3d dc d6 a5 bd 07 dd 03 b9
       -0.0024985007 0.040534694 -0.08097622 -0.00012575473
0002b0 44 dd af bd 1b 3e 19 3e fe a8 47 3c 15 22 40 3d
       -0.08587125 0.14965098 0.012186287 0.046907503
0002c0 ff 0a 72 bd e4 47 52 3b a7 e4 07 3d 81 23 00 be
       -0.059092518 0.0032086307 0.033177044 -0.12513544
0002d0 28 48 1b 3d 05 92 b3 bc c4 1d 9a bd 32 39 aa 3c
       0.03791061 -0.021920213 -0.075252086 0.020779226
0002e0 50 2c b5 3d ad c6 01 bd 11 4d 47 3d fb fe 93 bd
       0.088463426 -0.031683613 0.04865748 -0.07226368
0002f0 53 e5 8e bc 51 66 88 3d 3f 9a 1d bc fa d8 ae 3c
       -0.017443335 0.0666014 -0.009619295 0.021343697
000300 4e 2a 29 3d f8 ad 96 bd 41 6c a0 bb a0 5d 15 3d
       0.04130011 -0.07357401 -0.0048957174 0.03646624
000310 01 5e 1c 3d 3b 40 df 3c 27 27 46 3d ae 50 af bd
       0.038175587 0.027252307 0.048377182 -0.0856031
000320 8b c4 7b 3d e6 1d 12 bd c3 d6 d2 bc fc 9b 0d bd
       0.061466735 -0.035673045 -0.025737172 -0.034572586
000330 4e af 50 bc c8 d3 5e 3d 2b f2 b2 bd ef 25 49 3c
       -0.012737108 0.05440119 -0.08737596 0.0122771105
000340 de 6e 8c 3d 71 7c a7 bb ae 6b 58 3d 10 55 95 3c
       0.06857084 -0.00511127 0.052837066 0.018229038
000350 91 5c 00 3a 92 e4 54 3d d3 79 d8 bd 21 fd bb 3c
       0.0004896606 0.051975794 -0.10570111 0.02294785
000360 52 7c c0 3c 61 f0 5b 3d 95 56 09 3d c6 1a 0e be
       0.02349678 0.05369604 0.033529837 -0.13877401
000370 13 f6 b1 3d 40 7b 3c 3b 4e e8 62 bd 51 5e 1d bd
       0.08689513 0.0028759986 -0.055397324 -0.038420025
000380 75 21 db 3c ce 12 48 bd d7 4c b1 bd 64 81 92 3c
       0.026749352 -0.04884606 -0.08657234 0.017883964
000390 f8 d0 51 3d a3 4c a4 bd 15 78 a5 3d e6 1f 50 3d
       0.05122468 -0.0802243 0.080795445 0.05081167
0003a0 65 5e f2 3d 07 9c 06 3d b9 1e ce 3d 4a f2 91 bd
       0.118344106 0.032863643 0.10064454 -0.07126291
0003b0 f7 0b 98 bc aa 35 e8 3d fa db 30 bd 83 dc 57 3d
       -0.018560393 0.113383606 -0.043178536 0.05270053
0003c0 c4 b6 fa 3d 51 45 56 bc f6 ac d8 bd a2 5b 9f bc
       0.12241891 -0.01307805 -0.10579865 -0.019452874
0003d0 08 57 b1 bd 13 47 6c bd 1e ad 58 3c dc d5 a4 3c
       -0.08659178 -0.05768497 0.013224868 0.020121507
0003e0 fa f2 0b 3d 46 16 95 3c 57 b1 9c bc 35 7b 73 bd
       0.034167267 0.018199097 -0.019127531 -0.05944367
0003f0 49 ab 07 be f1 e8 65 3d b7 1d 2b 3b 2a 10 3c bc
       -0.13248934 0.056130353 0.002611024 -0.011478463

mlp1.2.bias f4 [100]
000000 7d ed 50 bb d6 fe 24 3d f1 70 66 bc a9 f7 f1 ba
       -0.0031879835 0.040282093 -0.014065013 -0.0018460649
000010 e4 d5 93 3e e5 67 7c bb 63 af 8d 3d d3 eb c2 bd
       0.28874123 -0.0038514074 0.06918218 -0.09517636
000020 da 12 e3 bc 8f 81 ac 3c 34 97 11 3d 3c c9 9c bd
       -0.02771895 0.021057872 0.03554459 -0.0765557
000030 31 c7 41 3d ac 90 62 3d 63 1f 09 3e 56 da 95 bc
       0.047309104 0.05531375 0.1339088 -0.018292587
000040 1f c0 64 bd 19 fc e4 3d 01 82 ad 3c d3 e0 1d bd
       -0.055847283 0.11180896 0.021180155 -0.038544487
000050 2d cc 2a bd 37 17 86 3b 31 29 2a 3c c0 2f bb 3d
       -0.041698623 0.004092123 0.010385797 0.09139967
000060 66 5f 2e bd b1 7b f0 3d 15 71 a1 3d 4c a0 0a be
       -0.042571448 0.11742342 0.07882897 -0.13537711
000070 85 c4 97 bc b3 75 28 bd 50 23 1b bd 30 22 28 bd
       -0.018526325 -0.04112787 -0.037875473 -0.04104823
000080 99 e0 f9 3b ef 2e 04 be 58 77 8d bd 86 d8 65 bd
       0.007625651 -0.12908529 -0.06907529 -0.056114696
000090 9e d5 1b be 79 30 1c bd be 27 88 bd 73 df 24 be
       -0.15218207 -0.038132165 -0.06648205 -0.16100864
0000a0 57 61 81 bd fb a4 2b 3d de ed e7 bd 22 8e 6d bd
       -0.06317394 0.041905385 -0.113246664 -0.057996877
0000b0 ce ad 3c 3d 7b c6 99 3d d6 c0 bf bc 4c ba 1f 3b
       0.04606419 0.0750856 -0.023407381 0.0024372516
0000c0 b4 ab 65 bd 8d 6d 19 bd bc 48 ac 3d 43 78 c1 3d
       -0.056071952 -0.03745799 0.084123105 0.09446766
0000d0 2d ca 24 bd 52 03 ac bd 68 78 32 be cb 67 00 be
       -0.040231872 -0.08399071 -0.17428744 -0.12539594
0000e0 90 f0 1b 3e f0 43 3a 3d 31 f5 ea bd ce 32 f6 bc
       0.15228486 0.045474946 -0.11472548 -0.030053522
0000f0 64 cb 20 3e 75 79 ed bd fa 8a 8b 3d 55 dd d5 3d
       0.15702587 -0.11595432 0.06813617 0.10442606
000100 76 d5 d0 bd 55 27 9b 3c ac d4 03 be 28 16 7e 3d
       -0.101969644 0.018939653 -0.12874097 0.06203285
000110 50 05 63 bd fc 0d 46 3e 73 38 f5 bb 8c ca ba bd
       -0.05542499 0.19341272 -0.007483536 -0.09120664
000120 dd 57 13 bd 4b ea 97 3d ce 5d 21 bd 39 ba 64 3d
       -0.035972465 0.07417735 -0.0393961 0.05584166
000130 82 f7 da bc e5 df e7 bd 50 92 08 bd f5 10 45 3d
       -0.026729349 -0.11322001 -0.03334266 0.048111875
000140 b0 1b 9d bc 90 aa ee 3d f4 ec 4e 3d 2d 6a bc 3c
       -0.019178241 0.11653626 0.050518945 0.022999847
000150 2f 8c 89 3c 0a a6 98 bd 27 2e cd bd 97 bf 38 bd
       0.016790478 -0.074535444 -0.100185685 -0.04510459
000160 60 0c 01 be 5e b2 83 3d 34 88 bd bd 5a f5 a2 3d
       -0.12602377 0.06430505 -0.09254494 0.07956953
000170 00 fe e1 3d 33 8a 0a 3e 6a 16 71 bd 1b 07 52 be
       0.11034775 0.13529281 -0.058859266 -0.20510523
000180 fe 23 65 bd 52 73 cc bd 6c c4 61 bb 03 2e 8d 3d
       -0.055942528 -0.09982933 -0.0034449352 0.06893542

mlp2.0.weight f4 [100, 100]
000000 6b 28 7c bc 36 ad 4c 3d c1 c6 f2 bc 85 f9 cb 3d
       -0.015390496 0.049969874 -0.029635789 0.099597014
000010 fc 9d a8 bd 4d 9f fe 3c 25 ec c0 3d 71 59 ec bd
       -0.08233258 0.03108182 0.09420041 -0.11540497
000020 53 1c 8c 3d 9e 10 b6 3a 60 cc 1a 3d bc 58 a3 3d
       0.0684134 0.001389045 0.037792563 0.07975909
000030 8c 2f 83 3c 3f b5 b8 ba 44 d9 69 3d ea cf a0 bd
       0.016013883 -0.0014092101 0.057091966 -0.078521565
000040 68 ac 6c bc d1 0b 93 3c aa 2f 96 3d c0 f8 d2 bb
       -0.014445402 0.01794997 0.0733331 -0.0064383447
000050 0d 77 b9 3c 9e 7b 25 bd 2c 42 da 3b 4a 48 b3 3d
       0.022639776 -0.040401094 0.0066607203 0.087540224
000060 f4 1f 16 3d ab c4 8c bd 7d b6 9c bc 85 e9 d1 bd
       0.036651567 -0.06873449 -0.019129986 -0.102496184
000070 7a f0 a9 3d 0e 0a c6 bd ff 3f ed bc 0a 5b 1b 3c
       0.082978204 -0.096698865 -0.02896118 0.009482155
000080 39 09 3f bd b6 9b 90 bc 9a 0d f9 bc ce 53 b9 bd
       -0.046639655 -0.017652374 -0.030401994 -0.090491876
000090 eb ed bf 3d 3a 26 bc 3d 3f 85 89 bc 07 8d 05 3c
       0.09371551 0.09186979 -0.01678717 0.008151299
0000a0 53 50 87 3d 80 42 45 3d 64 92 ae 3d d8 7c e8 bc
       0.066071175 0.048159122 0.085240155 -0.028379843
0000b0 85 c5 a6 3d c7 92 97 bd a3 db 84 3c a7 cf be 3d
       0.081431426 -0.074010424 0.016218012 0.0931695
0000c0 f4 1a 8b bd d9 21 6d 3d 07 39 ff 3c ae 36 cd 3d
       -0.0679225 0.057893608 0.031155122 0.10020195
0000d0 10 41 85 bd a5 d2 a6 3d 2b d0 19 3d ef f6 e1 bd
       -0.0650655 0.08145646 0.03755204 -0.11033427
0000e0 77 b0 9f 3c 98 97 81 bd bf c0 e2 bb e3 ac 4c bc
       0.019493325 -0.06327742 -0.00691995 -0.012492391
0000f0 c4 74 90 bb 39 4a 8f 3d d3 61 c8 3d b7 02 61 bd
       -0.004408451 0.06996579 0.097842835 -0.05493423
000100 11 6b a4 3d 6f 8e a5 bd e6 96 60 bd ff 38 93 bd
       0.08028234 -0.08083808 -0.054831408 -0.071886055
000110 5f d9 c1 bb 05 b7 c2 bd 0d a7 cd 3c 55 58 ab 3d
       -0.005915805 -0.095075645 0.02510407 0.083664574
000120 ab 28 de bd 31 0f 86 3d 98 12 c6 3c 63 a8 8a bd
       -0.108476005 0.06545866 0.024178788 -0.067703985
000130 5a cd a7 3b ab 10 70 3d f2 e7 2d bd cb 35 6d bd
       0.0051209154 0.058609646 -0.04245753 -0.05791263
000140 84 05 c0 3d 60 a1 bc bd 44 02 9c bd a8 b6 5d 3d
       0.09376052 -0.09210467 -0.0761762 0.054129273
000150 f6 ef a7 bd d9 75 a7 3d 10 b7 06 bd c8 ea b0 bd
       -0.08200066 0.081767745 -0.032889426 -0.08638531
000160 0a 1e 84 3d dc 81 bd 3d 88 48 55 3d 86 5a b0 3d
       0.06451042 0.09253284 0.052071124 0.08611016
000170 f9 e6 07 be 4a 63 de bc 5f 5a a9 3d c6 1c f3 bc
       -0.13271703 -0.027146954 0.0826919 -0.029676806
000180 e2 d2 8c 3c 44 00 e0 bd 3f c7 0f bd e2 93 2a 3d
       0.0171904 -0.10937551 -0.035102125 0.04164494
000190 81 af 11 bd 84 51 d3 bd 60 47 cf 3d cc e8 d0 bc
       -0.035567764 -0.10318282 0.101210356 -0.025501631
0001a0 11 3a a7 3d cf 7b de bd 66 bb a2 3d 8c 84 6f bd
       0.08165372 -0.10863458 0.079459 -0.058476016
0001b0 47 b5 e5 bc 7e 6c 91 3c 51 13 0a bc c2 1e b4 3c
       -0.028040541 0.017751928 -0.008427457 0.021987323
0001c0 94 10 31 3d 56 aa 9d bc 8d f4 43 bb 9b db 46 bb
       0.0432287 -0.019246262 -0.0029900402 -0.0030343297
0001d0 fe fe be 3d 96 e1 95 3d 4e d4 a1 3c e4 c3 bc 3d
       0.0932598 0.07318418 0.019754555 0.09217051
0001e0 9b 36 35 3c 4f 63 09 3b a3 c5 3b 3c 1a 59 44 3d
       0.011060382 0.0020963734 0.0114606945 0.047936536
0001f0 48 70 a3 3b ad 1c b8 bd 5c ef 65 bd 01 48 dc bb
       0.00498775 -0.089898445 -0.056136474 -0.0067224507
000200 2a 6c bd 3d 70 ae 01 bc fe 1b 92 3d 24 b5 8b 3d
       0.09249146 -0.007915124 0.07134245 0.06821659
000210 b3 ef 9b bd c9 bd ae 3d ac 1c 62 3d 14 3e 8f bd
       -0.076140784 0.085322924 0.055203125 -0.06994262
000220 aa 62 a5 3c 13 40 a5 3d f7 c6 d1 bd 0a fe 8b 3d
       0.020188648 0.08068862 -0.10243028 0.068355635
000230 f4 27 20 bd e9 2d a0 3c 76 35 b1 bd de c7 2f 3c
       -0.039100602 0.019553142 -0.08652775 0.010728804
000240 71 22 e8 bc 4a 94 27 3d c5 fe 42 bd b3 2c 92 3d
       -0.028336735 0.040912904 -0.04760625 0.07137432
000250 ab 3f 0b be 82 eb 60 3c 8c 59 a7 3d 2e 67 03 bd
       -0.13598506 0.013728024 0.081713766 -0.03208082
000260 5e c2 97 3d 0c b2 9b 3d 83 9f 36 bd de dd 1a 3d
       0.074101195 0.07602319 -0.044585716 0.037809245
000270 e4 f0 e4 bb 60 44 44 3d cd 23 7d bd a9 f6 8b bd
       -0.006986724 0.04791677 -0.06180172 -0.06834156
000280 f4 73 67 3d 40 6f 98 bc 8e eb a2 bd d1 98 9e 3d
       0.056507066 -0.018607736 -0.07955085 0.07743991
000290 e0 71 80 3d 1c e4 55 3d 27 b8 c7 bc 0f f9 2e bc
       0.0627172 0.052219495 -0.024379803 -0.010679497
0002a0 f3 a4 e7 3c c5 22 cd 3d 25 07 d5 3d df 46 65 bd
       0.028276896 0.100163974 0.10401753 -0.05597579
0002b0 0c f1 bc 3b f0 39 95 3d 66 8c 7d bd 1d 30 c7 3d
       0.0057660397 0.07286441 -0.061901473 0.09725974
0002c0 1f fd 9c 3c 4d 20 d5 bd 7c 52 a9 3d 8d 02 d8 3d
       0.019163666 -0.104065515 0.08267686 0.105473615
0002d0 95 cd b9 bd b0 2c 24 3d 61 84 1d bc 4c 1b 11 3d
       -0.09072415 0.04008168 -0.009614081 0.035426423
0002e0 d2 52 10 3d 3e 28 ce 3b 27 de 89 bb 9d c1 d2 bc
       0.035235234 0.0062914183 -0.004207391 -0.025727088
0002f0 50 d1 a7 bd fd c5 99 bd 47 e2 94 b9 d7 c4 8b 3b
       -0.0819422 -0.075084664 -0.0002839735 0.0042654085
000300 05 d4 8a 3d 98 39 ee 3a 17 48 a9 bd 27 cc eb 3c
       0.06778721 0.0018175123 -0.08265703 0.02878387
000310 c4 3e d2 3d a7 bb e8 bc 6d ae d7 3d d3 46 bd bd
       0.10265878 -0.028409792 0.10531316 -0.09242024
000320 17 ec aa 3c 3e e0 2f 3c 91 84 a2 bd fa c0 da bd
       0.02086453 0.010734616 -0.07935441 -0.106813386
000330 c8 8c cb bd dd cc ab 3d 2f 5e 90 bd c9 7f 0a bd
       -0.09938961 0.08388684 -0.07049214 -0.03381327
000340 89 19 ab ba d8 15 82 bb e4 8f af 3d f9 0e b8 bc
       -0.0013053875 -0.003969889 0.08572367 -0.022468077
000350 04 9d dd bd c1 de 79 bd 3e 4d d0 3c e2 20 03 3e
       -0.10820964 -0.06100345 0.025427457 0.12805513
000360 e5 61 8d bd b6 4a 7a 3d 0f ce 85 3d b1 64 a9 3b
       -0.069034375 0.061106406 0.06533443 0.005169474
000370 4f 70 32 bd 7a 3d 17 ba 26 5a c7 bd 25 36 c1 bd
       -0.043564137 -0.00057693536 -0.09733991 -0.094341554
000380 3f d6 a3 39 19 9d b9 bd 9c 03 2b 3d 4c da 5e 3d
       0.00031249408 -0.09063167 0.04175149 0.054407403
000390 3f de 77 3c c9 99 2f bb 17 c9 6e bd 6e b7 71 3d
       0.015128671 -0.0026794544 -0.058297243 0.059012823
0003a0 da da 19 3d 9c 4e a4 bd ee 74 b8 bd 9c cb 44 bd
       0.03756223 -0.08022806 -0.090066776 -0.04804574
0003b0 3b 33 47 3d 8a bd 9d 3c c0 67 03 bd 9a b0 a8 3d
       0.04863284 0.019255418 -0.032081366 0.08236809
0003c0 b6 05 81 bd 0f 1f fb bb b9 e9 6d 3d 2d e0 fd bc
       -0.062999174 -0.0076636146 0.058084223 -0.030990684
0003d0 68 f3 ce 3c de 26 84 3d bd 94 77 bc e0 58 de 3d
       0.02526255 0.06452726 -0.015111146 0.10856795
0003e0 9c 14 58 3d 87 db a6 3d e7 f9 cb 3c 66 19 90 3d
       0.05275403 0.0814734 0.024899436 0.07036094
0003f0 3d 88 5e bd 51 e8 de bc 12 19 a7 bb 23 97 9e 3d
       -0.054329146 -0.027210386 -0.005099424 0.07743671

mlp2.0.bias f4 [100]
000000 d3 a4 b2 3c 08 a9 81 3d c2 5a 6d bd 2b b3 41 bd
       0.02180711 0.06331068 -0.05794788 -0.04729001
000010 ca c1 2c bd 7d 04 05 bb 02 09 0b 3e 4a 85 8a b9
       -0.042177 -0.0020296865 0.13577655 -0.0002642072
000020 62 6d d8 3d 9a 0c 53 3d 5c 23 cd bc bb ef a7 3d
       0.10567738 0.05152569 -0.025041275 0.08200022
000030 a7 2a 67 3d a6 ac ec bc a1 f1 e9 3d d0 18 1c 3e
       0.05643716 -0.028890919 0.1142304 0.1524384
000040 00 1a 98 3d 95 26 10 3d 74 66 e4 bd 01 1a 90 bd
       0.07426834 0.035193045 -0.11152354 -0.0703621
000050 43 5a 1c bd 3d 49 2d bd 89 c6 f2 3d df 71 21 3b
       -0.038172018 -0.042306174 0.11854274 0.0024634523
000060 1b 2b d1 3d 6f 1f df 3d 39 92 bc 3d 01 a5 41 3d
       0.102133 0.10894667 0.09207577 0.0472765
000070 95 ed 71 bd 76 dd 95 3d 85 70 22 3e 90 66 94 bc
       -0.059064467 0.07317631 0.15863235 -0.018115312
000080 03 3a 1d be 10 34 c0 3d 0b 1c 1b 3e 41 c2 c0 3d
       -0.15354161 0.0938493 0.15147416 0.09412051
000090 71 9d 7b bd d0 7f 45 3e 02 41 04 3d 6c 7e 89 3e
       -0.061429445 0.19287038 0.03228856 0.26854265
0000a0 02 e8 1d bc 54 38 27 be ac e3 6f bd 84 de 9b bd
       -0.0096378345 -0.16330081 -0.058566734 -0.07610801
0000b0 c7 b7 c4 3d a5 41 96 3c 0b 08 a9 bd 22 fc 92 3d
       0.09605365 0.018341849 -0.08253487 0.07176997
0000c0 08 06 4a 3d aa ac e8 3b a3 a8 89 3c cb ee 1d 3e
       0.049322158 0.0071006613 0.016804045 0.15423124
0000d0 b4 86 df 3c 67 1d 4f bd fb a2 ce 3d 72 d0 b5 bd
       0.027285911 -0.05056515 0.1008968 -0.088776484
0000e0 16 c7 aa bc 0c 87 b2 bd 7b 70 97 bd 3d e9 97 3d
       -0.020846885 -0.087171644 -0.07394501 0.074175335
0000f0 00 c1 d7 bd 15 55 c8 3d 96 6c 94 3d 17 dd bc bd
       -0.10534859 0.09781853 0.072472736 -0.09221857
000100 e8 6b 34 bd ce 0d 48 3d ce bc 7b bb e7 26 5d bd
       -0.04404822 0.04884129 -0.0038412097 -0.05399218
000110 c1 5c 57 bd 4e 16 51 bc 84 c1 af 3d 89 40 eb 3d
       -0.05257869 -0.0127616655 0.08581832 0.114869185
000120 7b 53 07 3d ac 6d 78 bd ab ce 46 bc 98 ca a7 3d
       0.033038598 -0.060651466 -0.012134234 0.081929386
000130 e0 17 e1 bd ee cd 84 3c a6 7a 92 bd fa 1f 96 3d
       -0.10990882 0.016211476 -0.071522996 0.07330318
000140 86 de bb 3d 0f 94 a7 3d 35 e3 9b 3d 7d 13 c2 bd
       0.09173302 0.08182537 0.07611696 -0.09476373
000150 a4 16 90 bd b2 7a af bd 95 cb 08 3e d1 c1 93 bd
       -0.07035568 -0.08568324 0.1335891 -0.07214702
000160 e1 9a 2c bd a3 a0 8c bd 6e 75 e6 3d 38 2a 89 bd
       -0.04213989 -0.068665765 0.11252867 -0.06697506
000170 0d f8 2a bb 3c 32 53 bd ea f3 6b bd 29 57 46 bd
       -0.0026087791 -0.05156158 -0.05760566 -0.048422966
000180 f2 3a c7 bd b4 24 8b bd f1 ea 86 bd 72 03 10 be
       -0.0972804 -0.0679411 -0.0658778 -0.14063814

mlp2.2.weight f4 [50, 100]
000000 f8 79 a0 3d 28 1a b7 bd 04 c2 46 3d cf 46 7a bd
       0.07835764 -0.08940536 0.04852487 -0.061102685
000010 82 ea a5 3b e0 64 6c bb 06 77 e1 bd dc 09 11 3e
       0.005063356 -0.0036070868 -0.1100903 0.14163917
000020 34 01 bc bd 49 0e 10 3b a7 08 2d bd 30 c0 90 3d
       -0.09179917 0.002198117 -0.04224458 0.07067907
000030 96 ca df 3d 51 1d b0 3d 82 85 07 be 81 cd 7f bc
       0.10927312 0.08599342 -0.13234523 -0.015612961
000040 81 f9 c5 3c 96 fd 9c 3d d6 aa 18 3c 75 be 1a 3d
       0.024166824 0.07665555 0.009318074 0.03777929
000050 a1 27 41 3d d4 d6 f7 bd 80 c2 13 bc c6 c0 8e bd
       0.047156934 -0.12101522 -0.00901854 -0.06970362
000060 0b f8 d7 bb c4 a7 2f bd d2 4b c6 bc 7a 2d fc 3c
       -0.0065908483 -0.042884603 -0.024206076 0.030783404
000070 25 36 86 bc 72 92 a2 bd 51 ab 63 3e 7f fb 42 bd
       -0.01638324 -0.079380885 0.22233321 -0.047603127
000080 7f 1a be 3b 1c 49 fa bd 6a e9 e6 bd a1 65 af 3d
       0.0058014984 -0.12220976 -0.11274989 0.08564306
000090 98 df 7d 3d 53 73 03 be 83 d7 07 3d e2 60 1f 3e
       0.061980814 -0.12836961 0.033164512 0.15564302
0000a0 dc 75 89 bc 57 12 b4 bd c6 ef cb bd 3f c8 18 bd
       -0.016779833 -0.087925605 -0.099578425 -0.037300345
0000b0 fe 09 3d 3d 67 c0 0c 3d 09 d7 15 bd f1 f7 8b 3c
       0.046152107 0.034363177 -0.036582027 0.017086001
0000c0 f5 00 d3 bb c6 2f 07 3e 4f 2b eb 3d 87 06 ae bc
       -0.006439323 0.13201818 0.1148287 -0.021243347
0000d0 a3 ee 06 bd 24 bd 8d bd c1 d2 f2 3d af 67 4a 3d
       -0.032942425 -0.06920841 0.11856604 0.049415287
0000e0 5e 3e 95 3d 68 a7 61 3c 4c 40 8a 3c 64 1e bb 3d
       0.07287286 0.013772823 0.016876362 0.09136656
0000f0 de 4d 08 3c b9 83 ce 3d 57 ca 63 bc 20 e8 fd bc
       0.008319346 0.10083718 -0.013903222 -0.030994475
000100 f9 07 c6 ba c5 25 61 3d 81 7d dd bc a8 32 48 3d
       -0.0015108577 0.05496766 -0.027037384 0.048876435
000110 ec 1b d0 3d 3d 4a 8c 3d 64 dd 36 bd c0 d3 7a 3d
       0.10161576 0.06850097 -0.04464473 0.061237097
000120 58 d9 03 be fe b0 9d bc 53 2a 15 be f0 7b 9a 3d
       -0.12875879 -0.019249436 -0.14566927 0.075431705
000130 77 3c f9 bc 6a 79 aa bd 8e 07 15 be 32 19 fd bd
       -0.03042434 -0.08323939 -0.14553663 -0.12358321
000140 d2 54 94 bd bf a7 7d 3d 12 91 fd 3d 5e 7f 38 bc
       -0.07242741 0.061927553 0.123811856 -0.011260835
000150 b1 aa b1 3d 0e ad 9e 3d 63 c1 86 3d f8 56 82 bd
       0.08675135 0.07747851 0.06579854 -0.06364244
000160 53 75 9e bc 80 04 8d bc df 6d 08 bd 2a ea 7e 3d
       -0.019343054 -0.01721406 -0.033307906 0.062235035
000170 c9 76 00 3e 4b 8e a1 3d 07 42 7b 3d 80 e2 15 bd
       0.12545313 0.07888468 0.061342265 -0.03659296
000180 af ae 29 3e e2 54 c3 bd 7b 65 01 bd d8 45 0a bd
       0.16570543 -0.095376745 -0.03159092 -0.033758014
000190 b2 b2 2e bb a8 01 b8 bd f2 25 b7 3c 23 7d 84 bc
       -0.0026656804 -0.08984691 0.02235696 -0.016172951
0001a0 89 11 c5 bd 34 78 94 3d 0e 04 de bb 77 40 51 3d
       -0.09622485 0.072494894 -0.0067753857 0.05108687
0001b0 d4 59 bf 3d 65 55 a7 bd a7 52 c6 bd c1 77 b6 bd
       0.09343305 -0.081705846 -0.096837334 -0.0890956
0001c0 35 2d 9b bd 59 21 bb 3d d4 bf f2 bc 16 76 c4 bd
       -0.07576982 0.0913722 -0.029632486 -0.095928356
0001d0 6c 43 af 3d 16 3f ab bd 9d d4 b8 bd 1a 67 4b bc
       0.085577816 -0.08361642 -0.09024928 -0.012414718
0001e0 2e da 96 bd 8f 44 85 bd 7a 04 12 bd cb 96 be bd
       -0.07365833 -0.06507217 -0.0356488 -0.09306105
0001f0 d0 6c 1d 3a 08 93 03 bd 7c b1 d2 bd 92 6e 36 bd
       0.0006005289 -0.03212264 -0.10287759 -0.04453904
000200 07 be 84 3d c8 c4 b8 3d e4 d3 2c bd 89 5d 66 bd
       0.06481557 0.09021908 -0.042194262 -0.056241546
000210 e6 aa ec bd be e1 b1 3d c5 6d aa 3c ea fc b3 bd
       -0.11556034 0.08685635 0.020804295 -0.08788474
000220 df cf f5 bc ae 0d ad bd 15 d8 a4 3d 29 fa b2 bd
       -0.030006347 -0.08449875 0.08049027 -0.087391205
000230 7e d7 88 3d 2b b7 cb bc a2 ae 14 3e 26 bd 4a bd
       0.06681727 -0.024867615 0.14519742 -0.049496792
000240 df 9e 3f 3d a8 04 89 bd ff 5b c1 bd 5c 91 4c bd
       0.04678237 -0.06690341 -0.09441375 -0.049943313
000250 69 6d 55 3c 00 31 60 bd 4c 61 12 bd a9 89 fd 3b
       0.013026574 -0.05473423 -0.03573732 0.0077373576
000260 90 ed 8e 3d 57 73 6f 3d e1 f7 94 3d 70 fc be bd
       0.06978905 0.058459606 0.07273842 -0.093254924
000270 e7 ed e4 bc cb c2 c3 bd d2 d6 cb 3d 81 89 e1 bd
       -0.027945472 -0.09558638 0.09953083 -0.11012555
000280 4d da 9d bd d4 72 34 bd 55 d1 80 3c 96 c6 06 3e
       -0.07707653 -0.04405482 0.015724817 0.13161692
000290 84 99 fa 3d 4e 46 80 3d ff 37 b0 bd 3d 3b 2c bd
       0.12236312 0.062634096 -0.086044304 -0.04204868
0002a0 ed 9c ac 3d 8b e9 20 bd 8f b4 2b bd 25 c4 23 bd
       0.08428369 -0.039285224 -0.04192024 -0.03998198
0002b0 8c a9 11 3c ed d9 c3 bd e1 d1 c0 3d fc 33 bc 3d
       0.008890521 -0.095630504 0.09415031 0.09189603
0002c0 0c 3a 50 bd a7 15 30 3c 8b 5e 95 3b 2b 27 38 bd
       -0.050836608 0.01074735 0.0045583895 -0.04495923
0002d0 b7 d9 9e 3d 91 25 ba bd 18 e2 a7 bd 1c a1 cc bd
       0.077563696 -0.090891965 -0.08197421 -0.09991667
0002e0 d4 96 d0 3c 4a ac 02 3c 26 10 a5 3d b0 8b 8e 3d
       0.025462545 0.007975647 0.08059721 0.06960237
0002f0 54 9e 44 3d 53 06 d4 3d e3 07 a1 bd a4 21 da bc
       0.048002556 0.10352769 -0.078628324 -0.02662737
000300 e2 08 be bd 0f 43 80 bd e6 50 d2 3d 4e 2a 31 bd
       -0.09279038 -0.062627904 0.102693364 -0.043253236
000310 a1 6a be bd 3b 67 3c bd 35 22 0b 3d 2b 6d cc bd
       -0.092976816 -0.045996886 0.03396817 -0.0998176
000320 ce 6c 6e bd af 28 c9 3d 02 4c c4 bd 05 8c a6 bd
       -0.058209233 0.09822213 -0.0958481 -0.08132175
000330 f2 21 05 3d 04 dd ae 3c cf 37 80 3b dc 93 8f bd
       0.032503076 0.021345623 0.003912903 -0.07010624
000340 2e a4 91 3d 34 ca 08 bd e1 f1 cd bd 15 8e 0c bd
       0.07111393 -0.03339596 -0.100559 -0.034315187
000350 86 fa a5 3d 8a 4b 83 3d 8f 4c c3 3d 98 59 66 bd
       0.08104424 0.06410892 0.09536087 -0.056237787
000360 82 7e 7d 3d af 14 da bc 64 f0 5c bc 02 68 88 bd
       0.061888225 -0.02662119 -0.013485048 -0.06660463
000370 32 53 4b 3b 90 6b cf 3c 53 34 06 3d 1c 9a 66 3c
       0.003102493 0.025319844 0.032764744 0.0140748285
000380 77 7d 9c 3d 14 ee 89 bd 46 92 cc bd eb 30 11 bd
       0.07641118 -0.06734863 -0.09988837 -0.035447042
000390 60 0f c2 bd 86 3e d2 3d a6 a0 5f bd 2d c8 ee 3d
       -0.09475589 0.10265832 -0.054596566 0.11659274
0003a0 a5 e5 b1 bc 45 15 04 bc a3 5d 26 be 51 5e 05 bd
       -0.021715948 -0.008061712 -0.16246657 -0.03256065
0003b0 41 d7 9b 3d 03 b9 c2 bd 47 6b 8b bc aa 08 d2 3b
       0.07609416 -0.095079444 -0.017018927 0.0064097242
0003c0 2f 67 af 3d ed 34 ff bc d7 37 25 bd 87 0e e0 3c
       0.085646026 -0.031153167 -0.040336456 0.027350677
0003d0 48 e2 13 3d 68 db 5c 3d 88 39 d4 bd 67 71 8e bd
       0.03610447 0.05392018 -0.10362536 -0.069552235
0003e0 01 9d ed ba ae 03 11 3e 48 57 84 3b f6 c5 5d 3b
       -0.0018128456 0.1416156 0.004038725 0.0033839918
0003f0 f0 63 36 3d 98 e6 a2 3d be c5 0c 3c 77 03 5c bd
       0.0445289 0.079541385 0.008592067 -0.05371424

mlp2.2.bias f4 [50]
000000 9b 2a a1 3d c3 72 f3 bc e6 e0 05 be d9 16 0d 3e
       0.078694545 -0.029717809 -0.13074073 0.13778247
000010 80 cf 22 be 8a 23 b5 bd 9e b1 aa 3d 29 16 51 bc
       -0.15899467 -0.08844669 0.08334659 -0.012761631
000020 7b d3 a2 3d 0b 8f 12 bd e1 b2 89 3b 9a 51 8d bd
       0.07950493 -0.035780948 0.004202232 -0.0690033
000030 5d 7a 61 bd c9 59 78 3d e0 b1 1c bd ab 16 39 3c
       -0.055048335 0.0606325 -0.038255572 0.011296908
000040 1a 3c d6 3d 08 18 23 3d ac c5 b8 bc 0e 5d 39 be
       0.10460682 0.03981784 -0.022555195 -0.18101904
000050 cb 73 9c bd 00 9f 16 3d 61 aa 5a 3c ce 74 d9 3c
       -0.07639273 0.036772728 0.013346286 0.026544955
000060 5c f1 de bd d8 3d c1 3d 02 25 18 be 41 ae af 3d
       -0.108858794 0.09435624 -0.14857867 0.08578158
000070 90 8d 2f bd 73 b1 d3 3d 09 e8 56 bd db 71 89 bd
       -0.042859614 0.1033658 -0.05246738 -0.06711169
000080 e2 1f 83 bd b3 76 06 3d f4 01 aa 3d a1 76 94 bd
       -0.064025655 0.032828044 0.08301154 -0.07249189
000090 22 49 0b 3e de c1 75 bd d7 d7 2f bd 45 29 24 be
       0.13602117 -0.05999934 -0.04293045 -0.16031368
0000a0 d6 fd 11 be ea b6 10 3c ee 48 f7 bd d5 df 52 bd
       -0.14256987 0.008832673 -0.12074457 -0.051482994
0000b0 3d f6 0e 3d 54 0d 97 3d 0f 2d ca bd eb 69 5f 3d
       0.0349028 0.07375589 -0.098718755 0.05454437
0000c0 79 60 19 bc 84 b8 e1 bc
       -0.00936138 -0.027553804

attention.0.weight f4 [100, 200]
000000 d3 b4 99 3c cd 49 b9 bc 47 26 1c bd 54 57 75 bd
       0.018762982 -0.022618199 -0.03812244 -0.059897736
000010 a5 54 1e bd 01 20 fd 3c 89 fa 36 bd 32 3d 5d bd
       -0.038654942 0.03089905 -0.044672523 -0.05401344
000020 e4 a4 d5 3c 02 db 63 bd 17 e4 ff 3c 60 69 83 bc
       0.026079603 -0.055628784 0.031236691 -0.016041458
000030 7e f1 1c bd 5e c6 b2 3c ab a1 d4 3c 0b 39 78 bd
       -0.038316242 0.021823104 0.025955996 -0.060601275
000040 48 98 02 3d b2 68 4d bc 6b 07 d0 3c 50 88 30 3d
       0.031883508 -0.012537168 0.025394162 0.043098748
000050 79 6c 6d 3d 9b 47 fb 3c ec de 69 bc 21 fe 32 3d
       0.057964776 0.030673793 -0.01427434 0.043699387
000060 2b b3 e6 3c 64 4a 68 bd 18 12 7c 3d 66 8c 2f bd
       0.028161606 -0.05671157 0.061540693 -0.042858504
000070 b9 58 88 bd 76 d8 76 3c e3 24 7b bd 09 bf 4f bb
       -0.066575475 0.015066257 -0.061314475 -0.003169956
000080 eb 9e b0 bc 75 22 82 3d 6f b1 fc 3c 4e 59 81 bd
       -0.021560153 0.063542284 0.030846326 -0.06315862
000090 6b 0c 83 bc 59 a0 5c bd 57 df 7e 3d e7 25 19 bd
       -0.015997132 -0.053863857 0.062224712 -0.037389662
0000a0 1f d5 6a 3b a4 7e 21 bd 0a 44 c8 bc e3 6d 14 bc
       0.0035832596 -0.039427415 -0.024446506 -0.009059402
0000b0 ff 99 f2 3a a2 c8 51 3d f4 d9 68 bd f5 98 d8 3c
       0.0018509029 0.05121673 -0.05684848 0.026440123
0000c0 44 7c 82 bd d8 a5 a0 bc 45 7e 53 3d 84 a7 8f bb
       -0.06371358 -0.01961033 0.051634092 -0.004383983
0000d0 2a b3 11 3d bb e4 3b bd 5b 12 77 3d de 20 d7 bc
       0.035571255 -0.04587243 0.06032024 -0.02626079
0000e0 a9 d6 30 3d dc 07 10 bd 32 84 3e 3c 83 11 f2 bc
       0.043173466 -0.035163745 0.0116281975 -0.029549366
0000f0 b1 af 0c 3c bf 87 54 3c 46 ac 1a 3d f3 a2 8e 3c
       0.00858681 0.0129718175 0.03776195 0.017411685
000100 2f 7a e2 3c e1 55 52 bc 13 6c 3b 3d 6d a5 71 bb
       0.027646152 -0.012837858 0.045757364 -0.0036872283
000110 b9 4c 89 3d c4 78 6c 3d f7 56 55 bd 43 55 9f bc
       0.06704087 0.05773236 -0.05208489 -0.019449836
000120 e4 e2 6b bc b4 d3 25 bd b1 0d 8e 3d 92 bd 8d 3d
       -0.014397357 -0.0404851 0.06936205 0.06920923
000130 4a 6e 34 bd de 2a cc b8 da 5c 75 3d 83 b0 22 3d
       -0.044050492 -9.735463e-05 0.059903003 0.039719116
000140 3a 1d 8a 3d 93 cd 1d bc 63 1c 4e bd 12 c9 94 3c
       0.06743856 -0.009631532 -0.05032004 0.018162284
000150 b9 f1 79 3d 7c df 47 bd cb 75 d9 bb 32 45 8b bd
       0.06102154 -0.048797116 -0.0066363565 -0.06800307
000160 dc 8f ce 3c cb db 63 3d 17 b4 06 bc 9c e5 fd 3c
       0.025215082 0.055629533 -0.008221648 0.030993275
000170 58 63 6b bd cf 40 71 bd 41 90 53 bb 6c 67 8a bd
       -0.05746779 -0.058899697 -0.0032282027 -0.067580074
000180 a4 b9 18 bb 68 21 2a bc 62 60 9e ba 75 de 7e 3d
       -0.002330401 -0.010383941 -0.0012083168 0.06222387
000190 9a b3 3b 3c d2 f7 5b bd be 94 0d 3d 1b 5d 76 bd
       0.011456395 -0.053703137 0.03456568 -0.060147386
0001a0 c4 90 8b bd 3f 95 df bc 87 7a 1b 3d 1d d5 0b 3d
       -0.06814721 -0.027292846 0.037958648 0.034138788
0001b0 e5 f7 40 bd bd 92 14 bd d1 3f 3f 3d 09 63 46 bd
       -0.04711141 -0.036272753 0.04669172 -0.04843429
0001c0 e7 a0 50 3c d8 14 95 3a 6b b7 22 3d 35 6a fc 3c
       0.012733675 0.001137401 0.039725702 0.030812362
0001d0 53 fd 2a bd 52 0b 4a 3d d1 3f 91 bc 4e 9d 23 3d
       -0.041745495 0.049327202 -0.017730625 0.03994494
0001e0 cf fb 56 3d 74 80 43 ba 44 27 01 3c 1f 34 89 3d
       0.052486237 -0.00074578007 0.007882897 0.066993944
0001f0 6f 8b 9d 3b e2 04 03 bd 95 97 15 3d cd 65 95 3c
       0.0048078815 -0.03198708 0.036521513 0.018237019
000200 a5 e9 08 bd ee 99 32 3d 64 c6 3c bd 83 4a 87 bc
       -0.033425946 0.04360383 -0.046087638 -0.016515022
000210 e5 97 06 3b e5 35 47 3d 24 57 8d bd 61 cf 57 3c
       0.0020537314 0.048635382 -0.069013864 0.013172002
000220 59 42 8a 3d 05 8f 6e 3d fe 7b ba bc a5 18 84 3d
       0.06750936 0.058241863 -0.022764202 0.06450013
000230 e4 75 57 3d 4d 3e 64 bd ce 54 87 bc 75 34 8b bd
       0.052602664 -0.055723477 -0.01651993 -0.06797115
000240 93 5b 13 3d 1c 37 53 bd 27 ea a0 bc 14 0a 64 3d
       0.035976004 -0.05156623 -0.019642903 0.055673674
000250 0f fb 79 3d cd 21 9b bc 1b cb c2 3a 58 64 2e bd
       0.061030444 -0.018937016 0.0014861556 -0.042576164
000260 35 d0 83 3c 6f ed e5 3c db b9 13 bd d0 a3 c8 3c
       0.016090492 0.028067319 -0.036065917 0.024492174
000270 a7 9f 3f bd 43 fe 3c bc ba 76 6f bd 6c fd 80 bd
       -0.046783116 -0.01153523 -0.058462836 -0.062983364
000280 de d5 80 bd ee f2 89 bb 14 37 5c bd f9 30 26 3d
       -0.06290792 -0.0042098677 -0.053763464 0.040574048
000290 36 f2 6e 3d 3d b7 cc bc c9 d5 ca b9 31 dd d8 bb
       0.05833646 -0.024989719 -0.00038687725 -0.006618165
0002a0 28 27 8b bd e8 be 0f 3d 1d 6e 21 3d 5d f1 66 bd
       -0.06794578 0.03509417 0.039411653 -0.056382526
0002b0 b3 d3 fa 3c 6a aa 78 bd 01 24 86 bd 30 58 46 3c
       0.030618524 -0.060709395 -0.06549836 0.0121059865
0002c0 91 dc 84 ba a4 27 8b 3d 72 f7 81 3c 22 e3 e6 bc
       -0.0010136535 0.0679467 0.015865061 -0.028184477
0002d0 36 a5 71 bd 90 57 87 bd ed ba 39 3d 37 f9 6b bd
       -0.058995448 -0.06608498 0.045344282 -0.057610717
0002e0 88 c0 d9 bc 3a 9c f6 ba 9a 09 86 bd b4 38 19 3d
       -0.026581064 -0.001881487 -0.065448 0.037407592
0002f0 db 00 85 3d 75 dd b4 3c 1b 28 61 3c 90 18 ed 3c
       0.06494304 0.022078255 0.013742472 0.028942376
000300 ed 3d 87 3c 2e b1 20 bd b5 1c 27 bb 23 ee 0f bc
       0.01650902 -0.03923147 -0.0025499288 -0.008784804
000310 90 50 cc bc 4e f4 7c 3d 20 16 1d bd c9 96 83 bc
       -0.024940759 0.061756425 -0.03835118 -0.01606311
000320 88 e0 89 3d 84 4f 8f bd 0e 8e 84 bc 57 88 1a bd
       0.06732279 -0.06997588 -0.016181018 -0.03772768
000330 79 ea 72 3d f8 d4 e8 bc 7d 77 f9 bc 48 85 9c bc
       0.05930564 -0.028421864 -0.030452484 -0.019106522
000340 d4 ec 89 3d 93 f0 a9 bc fe 45 07 3d 55 db f5 3c
       0.067346245 -0.020744598 0.033025734 0.030011812
000350 01 d5 26 3d 3c 92 9a 3c ee 14 02 bd 08 53 87 bd
       0.04073048 0.018868558 -0.03175824 -0.06607634
000360 b7 c4 8e bd 06 aa 82 3c ad 15 61 3d 37 a0 10 3d
       -0.06971114 0.015950214 0.054952312 0.035309043
000370 d0 8b 8f 3c e6 c2 9e 3c 0d 52 48 bc 24 6c 77 3d
       0.017522722 0.019380044 -0.012226594 0.060405865
000380 f7 98 8b bd ca c3 42 bd fe ee 15 3c 58 2f 7a bc
       -0.06816285 -0.04755 0.009151218 -0.015270077
000390 47 6d 0d 3d 09 35 86 bc 58 a0 41 3d 3c f8 79 3d
       0.034528043 -0.016382711 0.047272056 0.06102775
0003a0 52 84 2b 3d 0f 20 3d bd 18 5c fe bc 28 07 de 3b
       0.041874237 -0.04617315 -0.031049773 0.0067757554
0003b0 df ce 47 3d 73 7b 0d bd 8f 94 8a bd ea 5b 26 3d
       0.048781272 -0.03454156 -0.067666166 0.040615
0003c0 f4 a3 81 3d 7c 99 a7 bc ab d5 32 bc 79 c2 96 bc
       0.063301 -0.02045893 -0.0109152 -0.018403279
0003d0 b6 1a 23 bd 87 6d 3d bd f1 c0 c8 bc 0b f9 4f bd
       -0.039820395 -0.04624703 -0.024506064 -0.050774615
0003e0 44 bb a0 bc ed c6 84 bd 64 0c a3 bc e5 c7 0d 3c
       -0.019620545 -0.064832546 -0.01990337 0.008653616
0003f0 15 37 8d 3d cb ee 1f 3d 03 0d c1 bc 4b 85 9d 3c
       0.06895272 0.03904609 -0.023565775 0.019228598

attention.0.bias f4 [100]
000000 1b 7a 15 bd 7b ab d4 3c ea 65 e6 bc 6b a9 72 bd
       -0.036493402 0.025960675 -0.028124768 -0.0592436
000010 23 00 4d 3c 4e 11 32 bd 4a 26 94 3d 16 b7 12 bd
       0.01251224 -0.043473534 0.072338656 -0.035819136
000020 c3 c6 72 bc af 16 67 ba a0 80 d3 3c bb b7 2e 3d
       -0.014817896 -0.0008815331 0.02581817 0.042655688
000030 12 d8 a0 bc 5f 80 0d bd 88 95 6a 3d cc 38 e9 bc
       -0.01963428 -0.034546252 0.05727151 -0.028469466
000040 4e cc 70 bd b3 a6 4b bd 76 36 34 3d 26 81 fa 3c
       -0.05878859 -0.049719524 0.04399725 0.03057916
000050 9a 5a 4c 3d b6 9b 87 3d 92 85 2d 3d 70 1f 15 bd
       0.049891092 0.066214964 0.04236371 -0.036406934
000060 0c 13 30 bd 11 e6 b8 3d cc 40 49 bd 07 4f ff bc
       -0.042986915 0.09028257 -0.04913406 -0.031165613
000070 cc cb ec bc 1f 09 1e 3b e7 02 8e bd 3b cd 8b bc
       -0.028905772 0.0024114323 -0.06934147 -0.017065635
000080 00 f8 cb 3c 7f d9 17 bd 2f 85 8c bd 5a 54 bd 3c
       0.024898529 -0.037072655 -0.0686134 0.023111511
000090 aa 56 cb 3d dd 4e 23 bc da f9 44 3c 3e e7 e6 3c
       0.09928639 -0.009967533 0.01202246 0.028186437
0000a0 7c dd 7b 3d e6 c4 33 3d 40 78 92 3d 66 92 9b 3d
       0.06149052 0.04388895 0.07151842 0.07596283
0000b0 cf ff cb bb 6b e6 91 3d ed 59 44 bd 5e 22 7d bc
       -0.006225563 0.07124027 -0.047937322 -0.015450088
0000c0 6a c5 35 3d 17 ab 55 bd 7f 3f aa 3b 3c 03 e3 3d
       0.04437772 -0.052165117 0.0051955576 0.11084601
0000d0 86 42 3b 3d 27 fd ec bc fc 3c b1 3c 18 42 1e 3d
       0.04571774 -0.028929306 0.021635525 0.03863725
0000e0 1d c1 f9 bc d6 cb 65 bd c4 c0 63 bd a4 82 2a 3d
       -0.030487591 -0.056102596 -0.055603758 0.041628495
0000f0 bb 89 f1 bc aa bb f9 3b 58 ef 8c 3c 52 92 c6 3c
       -0.02948462 0.0076212483 0.017203972 0.024239693
000100 16 cd 04 bd d1 84 f7 3b 6c 6d 63 3d 9d 0f 65 bd
       -0.032422148 0.0075536747 0.055524275 -0.055923093
000110 f7 5c 98 bd 47 65 f7 bc e9 02 51 bd cb 57 b1 3d
       -0.07439607 -0.03019966 -0.051028166 0.08659323
000120 11 36 87 3d c4 c3 83 bd 4e 91 40 3c cd 98 62 3d
       0.06602109 -0.06433824 0.011753393 0.055321503
000130 c8 3e fb 3d d0 54 4c 3d f9 e1 53 3c c3 f2 51 3d
       0.12267834 0.04988557 0.012932294 0.051256906
000140 7a 8e 57 bd a5 a4 35 3b 0a d2 95 3d 56 3b ac 3c
       -0.05262611 0.0027716544 0.073154524 0.021024387
000150 c0 2c 38 3d 68 fd 1f 3d 86 82 08 3c 64 09 a7 bb
       0.044964552 0.039060026 0.0083319 -0.005097555
000160 34 83 a6 3a c4 72 86 3d 98 1e 04 bd 90 25 83 3d
       0.0012703897 0.065648586 -0.03225574 0.06403649
000170 1a c9 59 bd b8 c3 b2 3d 57 3b 52 3d ad c2 36 bc
       -0.0531703 0.08728737 0.051326122 -0.011154813
000180 4e 5b 28 bc ab 78 da 3d 3b 6e 4f 3d 5c 7e ae bd
       -0.010275675 0.10667547 0.050642233 -0.08520195
